checkpoint_2_critic.pth (torch_old, 159770 bytes, 5 tensors)

fcs1.weight f4 [256, 24]
0.062760696 -0.005697303 0.010537405 -0.082777105 -0.13582459 -0.16882403 -0.037230767 -0.015182366
0.08517721 0.060141534 -0.06239371 0.075841814 0.20226902 0.039854277 0.03744684 0.084083766
0.15899457 0.043305147 0.0361266 0.09047573 0.5393121 0.52904063 -0.059209213 0.11792264
0.1408712 0.40983558 -0.037928898 0.109960824 0.0062700533 -0.2938289 0.006749525 0.08871685
0.36403653 0.41891465 0.020842178 0.024752438 0.09297387 -0.36641884 -0.015202048 0.022699125
0.3186088 0.34856445 -0.15611951 -0.15590592 0.12721318 -0.6420257 -0.11370381 -0.1279941
0.0071820053 0.05965882 -0.0062629385 -0.008894869 -0.5086112 -0.37836638 0.015042383 0.0045169047
-0.022436881 0.08809476 -0.0018003369 -0.038101453 -0.035507858 -0.0023022396 0.012546356 0.038445722
0.04150557 -0.032733463 0.028284535 -0.0011075088 0.63961107 0.4568369 -0.030970065 0.0013465683
0.07057766 0.7113466 -0.020492699 -0.04713207 -0.035201162 0.34515533 -0.00941042 -0.026918327
0.07122034 0.7835079 -0.0075837313 -0.036904212 -0.030331966 0.32229158 0.056380317 -0.11458616
0.07460022 0.74583495 0.0030293583 0.0063468274 0.16296051 -0.15403613 0.018059809 -0.0018280302
0.26672027 -0.37717065 -0.0407516 0.06892373 -0.031770483 -0.5497724 0.01994325 0.023654852
0.07854874 -0.20170301 -0.10532932 0.082854666 0.021553174 -0.4997908 -0.12714435 0.17980859
0.14824857 -0.2464475 -0.023126472 0.12611943 0.20690341 -0.7251007 0.018235985 0.08374066
0.20372154 0.5644166 0.041670665 -0.2746505 0.013297986 0.053316414 0.0008311691 -0.31601477
0.19191723 0.37792268 0.01558635 0.10926342 -0.05751061 0.1061359 -0.0091481665 0.085677564
0.16042699 0.6215899 -0.04965074 0.0461192 -0.16064969 0.13312604 -0.034035217 -0.026905408
0.1482247 0.17629291 -0.012456755 0.11145534 -0.052776124 -0.17489561 0.02817256 0.16496287
0.23191215 0.32786912 0.1013236 0.25243175 -0.17101203 -0.29747826 0.019788606 0.20560984
0.32664734 0.33499932 0.04053092 -0.03124248 -0.20501529 -0.6299384 0.037910912 0.010068035
0.2110086 0.2853728 -0.07790041 -0.10325697 0.07697874 -0.16010739 -0.044034008 -0.080626786
0.25630438 0.15268767 -0.0418339 -0.015647192 -0.026631348 -0.37353066 0.029733105 0.054148007
0.2105438 0.10949381 0.00797719 0.014432093 -0.12011045 -0.53201884 0.029593617 -0.021117685
0.032497216 0.076747395 -0.0010742572 -0.0007610955 0.16682565 -0.42163086 0.020042296 -0.025008012
-0.010780315 0.061210867 0.043881167 0.06285582 0.26124385 -0.20919757 -0.039837513 -0.01588274
0.041671265 0.004312303 -0.00512006 0.37883782 0.03785983 0.30073273 -0.003216784 0.354356
0.0858352 0.80253696 -0.039120585 0.04850461 -0.17972952 -1.07458 0.028846348 0.040534053
0.24719758 0.53183186 0.062113125 -0.15618756 -0.17479597 -1.0080545 -0.0061180056 -0.16667986
0.16965427 0.72535634 -0.017260665 0.27163887 -0.16561303 -0.7237577 0.0634907 0.23560545
0.0007459305 1.0167311 0.04151563 -0.05087485 -0.081341535 0.18086116 0.028384255 -0.0017185502
0.07924763 0.87976176 0.050166525 -0.07978213 -0.059118625 -0.25852138 -0.034279056 -0.066770196
00000000: ae88 803d 71b0 babb 14a5 2c3c 0b87 a9bd
00000010: 9a15 0bbe 35e0 2cbe 4a7f 18bd 75bf 78bc
00000020: 6471 ae3d f856 763d 8c90 7fbd f452 9b3d
00000030: 9c1f 4f3e 3d3e 233d dc61 193d 1c34 ac3d
00000040: 79cf 223e bd60 313d 7cf9 133d 574b b93d
00000050: 5c10 0a3f 356f 073f 5c85 72bd 6d81 f13d
00000060: 8a40 103e f8d5 d13e 555b 1bbd 2433 e13d
00000070: 0575 cd3b be70 96be 1f2b dd3b 2eb1 b53d
00000080: ff62 ba3e fb7b d63e 37bd aa3c a0c5 ca3c
00000090: 1669 be3d 409b bbbe 0312 79bc 84f3 b93c
000000a0: b120 a33e 0a77 b23e cbdd 1fbe cda5 1fbe
000000b0: 2c44 023e cc5b 24bf 8bdd e8bd e310 03be
000000c0: 0757 eb3b cf5c 743d 5639 cdbb c9bb 11bc
000000d0: 5834 02bf 3db9 c1be 5474 763c 8b02 943b
000000e0: 8dcd b7bc 076b b43d 48f9 ebba 4510 1cbd
000000f0: b070 11bd 2ce1 16bb 3b8f 4d3c 4379 1d3d
00000100: bf01 2a3d 8613 06bd f8b4 e73c d429 91ba
00000110: 8dbd 233f 87e6 e93e efb4 fdbc 567f b03a
00000120: 058b 903d d01a 363f 4ee0 a7bc 8f0d 41bd
00000130: 182f 10bd 33b8 b03e 2a2e 1abc d383 dcbc
00000140: f8db 913d f993 483f f380 f8bb df28 17bd
00000150: be7a f8bc 6703 a53e 0cef 663d 26ac eabd
00000160: 00c8 983d 0aef 3e3f 3388 463b 0cf9 cf3b
00000170: 1fdf 263e a6bb 1dbe 2af2 933c 849a efba
00000180: 8f8f 883e 831c c1be 26eb 26bd e227 8d3d
00000190: c421 02bd e2bd 0cbf 0760 a33c d2c7 c13c
000001a0: 29de a03d 3c8b 4ebe e6b6 d7bd b5af a93d
000001b0: 4890 b03c 94e4 ffbe 2132 02be be1f 383e
000001c0: 79ce 173e bc5c 7cbe ba73 bdbc 7425 013e
000001d0: 7dde 533e 33a0 39bf a263 953c 3980 ab3d
000001e0: 619c 503e 9b7d 103f dcae 2a3d fe9e 8cbe
000001f0: ccdf 593c 5062 5a3d d0e2 593a b0cc a1be
00000200: f385 443e 157f c13e e45d 7f3c 80c5 df3d
00000210: 3f90 6bbd c75d d93d 31e2 15bc b877 af3d
00000220: f946 243e 8420 1f3f 935e 4bbd 7ce7 3c3d
00000230: 5a81 24be 3152 083e 8368 0bbd bb68 dcbc
00000240: 37c8 173e 2186 343e 6b17 4cbc b342 e43d
00000250: c72b 58bd d617 33be 24ca e63c 07ec 283e
00000260: 617a 6d3e 76de a73e bf82 cf3d bc3e 813e
00000270: c71d 2fbe 124f 98be b71b a23c 638b 523e
00000280: 523e a73e 0885 ab3e c003 263d 3bf0 ffbc
00000290: 87ef 51be a543 21bf 7948 1b3d 66f4 243c
000002a0: a312 583e 621c 923e 408a 9fbd 6478 d3bd
000002b0: 08a7 9d3d 31f3 23be 015d 34bd a81f a5bd
000002c0: 543a 833e 285a 1c3e 065a 2bbd 8a2e 80bc
000002d0: fc29 dabc 693f bfbe d792 f33c 4dca 5d3d
000002e0: cb98 573e 4a3e e03d c3b2 023c 9674 6c3c
000002f0: 78fc f5bd 6332 08bf 506e f23c fffe acbc
00000300: cd1b 053d bd2d 9d3d 17ce 8cba 4184 47ba
00000310: 58d4 2a3e 00e0 d7be be2f a43c 9add ccbc
00000320: eb9f 30bc 3fb8 7a3d bdbc 333d 8dba 803d
00000330: c1c1 853e e337 56be a92c 23bd 851c 82bc
00000340: 7daf 2a3d 384e 8d3b 2dc6 a7bb 08f7 c13e
00000350: e912 1b3d a4f9 993e aed0 52bb 266e b53e
00000360: 5eca af3d 1073 4d3f e83c 20bd c5ac 463d
00000370: 040b 38be d68b 89bf 2d4f ec3c 0907 263d
00000380: 5d21 7d3e 2226 083f 556a 7e3d a2ef 1fbe
00000390: b7fd 32be ee07 81bf 8d79 c8bb 20ae 2abe
000003a0: d9b9 2d3e f4b0 393f 3d66 8dbc 4014 8b3e
000003b0: 7696 29be 2f48 39bf 6a07 823d 8e42 713e
000003c0: 8c8a 433a 3f24 823f 4b0c 2a3d 2662 50bd
000003d0: 6496 a6bd ab33 393e 1986 e83c fa40 e1ba
000003e0: 954c a23d 1138 613f 6a7b 4d3d d064 a3bd
000003f0: 5f26 72bd ea5c 84be 3268 0cbd d0be 88bd

fcs1.bias f4 [256]
-0.51577306 -0.1681213 -0.23628227 0.28832495 -0.30248648 -0.4580256 -0.4294207 -0.42114553
-0.63467366 -0.27728635 0.5198004 -0.23102601 0.39236748 -0.5800962 0.1246718 0.059821807
0.040115263 0.02464716 -0.19590402 -0.50371784 -0.114908494 -0.153068 -0.18905348 -0.32346785
-0.326917 -0.53384125 -0.23894799 -0.3091511 -0.65053433 -0.29941097 -0.26387218 -0.50394046
-0.07033273 -0.06243693 -0.36675805 0.16732405 -0.43602252 0.050764244 -0.034090463 -0.15919848
-0.49468783 -0.81592876 0.15133704 -0.23527904 -0.24973899 -0.460903 -0.273684 -0.49083593
0.024414595 -0.082514726 -0.060665987 0.0043456415 -0.45843938 -0.8291164 0.10059188 -0.42110512
0.40111992 -0.20224807 -0.12052546 0.47426787 -0.09765957 0.2610688 -0.063919604 -0.31889647
-0.010181587 -0.2774316 -0.56310236 0.4224367 -0.7624409 -0.18599035 -0.32318923 -1.0601683
-0.5573748 -0.028721271 -0.3262907 0.1931467 -0.13696958 -0.011916125 -0.096187346 0.20035152
-0.05873754 -0.2317694 -0.57498616 -0.2673822 -0.02322093 -0.10319293 -0.4756734 -0.31857297
0.094675824 0.2735273 -0.087626405 -0.14111419 -0.46272126 0.36058417 -0.3313035 -0.39225814
0.21102756 -0.56862366 0.07337181 0.10916061 0.17807615 -0.30051625 -0.0023236738 -0.223361
-0.24808216 -0.2679025 0.08002567 0.022035707 0.14052872 0.15787414 -0.4771191 -0.42054322
-0.52068657 -0.8650476 -0.37556112 -0.2749995 0.22432102 -0.63299435 -0.28956425 -0.05061179
-0.5522529 -0.46226493 0.009543466 -0.07902089 0.38299078 -0.17543173 -0.3942251 -0.17421846
-0.31736484 -0.47611445 -0.5084919 -0.0681754 -0.34475267 -0.12408921 0.37174362 0.46308833
-0.2847791 0.083585955 -0.34116066 -0.12689626 0.34507066 -0.28022766 0.24176173 -0.31518653
0.28489485 -0.44209015 -0.24547619 -0.35858336 -0.092347965 0.41649434 -0.46736047 -0.08360781
0.2669129 -0.38269356 -0.1576594 -0.31282184 0.24650714 -0.1198952 -0.14699683 0.076862104
-0.069218725 -0.33409745 -0.34163356 -0.30406496 -0.32636607 -0.037515804 -0.32422274 -0.17545071
-0.44203082 -0.22648431 -0.09061281 -0.39754283 -0.40740663 -0.59443045 -0.25304472 -0.34751537
-0.22115593 -0.07176267 -0.42700353 0.16516423 -0.16680123 -0.34149542 0.4773138 0.065511055
0.15573286 -0.34070784 -0.26768544 0.08540619 -0.038927313 -0.07369511 -0.29210225 0.23771098
0.13817379 -0.40320972 0.05431235 -0.28505805 -0.3541236 -0.11792778 0.041218635 -0.4912796
-0.35533956 -0.1867376 -0.35510594 -0.26608428 -0.30988708 0.5054539 -0.60199946 0.37133595
-0.3671885 -0.0031986784 -0.044688627 -0.34617773 0.14740856 -0.4127751 -0.5240756 -0.043824263
0.6606894 -0.37266877 -0.33655336 -0.3878198 -0.2566675 0.02396822 0.237986 -0.2680611
-0.17853807 -0.64006853 0.13998666 -0.19746828 0.12190605 -0.61705357 0.22204687 -0.106068574
-0.3790623 -0.04752708 -0.16047035 0.40069476 -0.30363622 0.27749103 -0.19458419 -0.32223234
-0.34848335 -0.47613382 -0.35851845 -0.11220872 0.17827135 -0.12814876 -0.43679476 -0.25878555
-0.19760197 -0.37271863 -0.62041795 -0.26041952 -0.14766286 0.7197847 -0.32725194 0.37181425
00000000: b409 04bf fd27 2cbe fbf3 71be 549f 933e
00000010: 82df 9abe 5582 eabe 08dd dbbe 63a0 d7be
00000020: f979 22bf 7af8 8dbe a411 053f 1592 6cbe
00000030: 64e4 c83e 2f81 14bf ee53 ff3d b607 753d
00000040: e74f 243d d7e8 c93c 109b 48be a7f3 00bf
00000050: 2555 ebbd dcbd 1cbe 3c97 41be 949d a5be
00000060: aa61 a7be d2a9 08bf c8ae 74be 0e49 9ebe
00000070: 6b89 26bf 654c 99be 411a 87be 3e02 01bf
00000080: 9b0a 90bd debd 7fbd b6c7 bbbe ff56 2b3e
00000090: 583e dfbe 2bee 4f3d 71a2 0bbd ed04 23be
000000a0: b947 fdbe b5e0 50bf 19f8 1a3e fdec 70be
000000b0: 94bb 7fbe 7afb ebbe 4f20 8cbe d94e fbbe
000000c0: 1e01 c83c 7bfd a8bd e67c 78bd e265 8e3b
000000d0: 91b8 eabe f940 54bf 1e03 ce3d 179b d7be
000000e0: 975f cd3e 1e1a 4fbe 0dd6 f6bd 3dd3 f23e
000000f0: be01 c8bd cfaa 853e 48e8 82bd 6646 a3be
00000100: acd0 26bc 840b 8ebe 7a27 10bf a049 d83e
00000110: 542f 43bf 4174 3ebe 0f79 a5be 98b3 87bf
00000120: 1db0 0ebf df48 ebbc 930f a7be 40c8 453e
00000130: c141 0cbe da3b 43bc dffd c4bd f328 4d3e
00000140: c696 70bd f554 6dbe 4b32 13bf 52e6 88be
00000150: d239 bebc d156 d3bd 778b f3be ff1b a3be
00000160: 66e5 c13d c50b 8c3e 7975 b3bd 3d80 10be
00000170: cde9 ecbe 7d9e b83e 9da0 a9be 0fd6 c8be
00000180: 9c17 583e 5291 11bf f643 963d 998f df3d
00000190: 9859 363e 44dd 99be c748 18bb bfb8 64be
000001a0: 4009 7ebe 842a 89be 80e4 a33d 3a84 b43c
000001b0: c3e6 0f3e c2a9 213e f448 f4be 7151 d7be
000001c0: b74b 05bf c273 5dbf 8c49 c0be bccc 8cbe
000001d0: 69b4 653e eb0b 22bf c441 94be 4f4e 4fbd
000001e0: 7260 0dbf fdad ecbe 335c 1c3c b4d5 a1bd
000001f0: 5e17 c43e 60a4 33be dfd7 c9be 5366 32be
00000200: a57d a2be 46c5 f3be 862c 02bf 8b9f 8bbd
00000210: 6c83 b0be 7c22 febd 2e55 be3e ea19 ed3e
00000220: 91ce 91be 1d2f ab3d 9cac aebe 18f1 01be
00000230: 1aad b03e 007a 8fbe 6390 773e 2160 a1be
00000240: bddd 913e a459 e2be 1c5e 7bbe 3d98 b7be
00000250: ee20 bdbd bf3e d53e df49 efbe 923a abbd
00000260: cfa8 883e 69f0 c3be 7771 21be 2f2a a0be
00000270: 5e6c 7c3e 9d8b f5bd 5686 16be e169 9d3d
00000280: 8cc2 8dbd d20e abbe 98ea aebe 67ae 9bbe
00000290: 7419 a7be 2caa 19bd 8600 a6be 5aa9 33be
000002a0: dd51 e2be 81eb 67be 3593 b9bd bc8a cbbe
000002b0: 9a97 d0be 982c 18bf 148f 81be 89ed b1be
000002c0: b376 62be 4ff8 92bd 35a0 dabe d020 293e
000002d0: f1cd 2abe 7dd8 aebe 7962 f43e a92a 863d
000002e0: 6f78 1f3e 4271 aebe 110e 89be 71e9 ae3d
000002f0: 3f72 1fbd 76ed 96bd 6d8e 95be 826a 733e
00000300: 6e7d 0d3e 8171 cebe a076 5e3d 21f3 91be
00000310: b04f b5be 1f84 f1bd dfd4 283d 0089 fbbe
00000320: 11ef b5be 2438 3fbe 72d0 b5be 333c 88be
00000330: 85a9 9ebe 6d65 013f a31c 1abf bf1f be3e
00000340: 2200 bcbe eba0 51bb 6c0b 37bd 353e b1be
00000350: 45f2 163e 4257 d3be d229 06bf 1281 33bd
00000360: f122 293f 71ce bebe b950 acbe 5190 c6be
00000370: ec69 83be 0059 c43c 9ab2 733e 4e3f 89be
00000380: afd2 36be 88db 23bf aa58 0f3e 2035 4abe
00000390: e1a9 f93d 39f7 1dbf 4160 633e 7b3a d9bd
000003a0: 7414 c2be c1ab 42bd 5752 24be dd27 cd3e
000003b0: 3576 9bbe 4e13 8e3e 1441 47be a3fb a4be
000003c0: 696c b2be d0c7 f3be bb8f b7be afcd e5bd
000003d0: c48c 363e 6e39 03be 90a3 dfbe 8a7f 84be
000003e0: 2c58 4abe fad4 bebe b6d3 1ebf b555 85be
000003f0: ef34 17be cf43 383f 918d a7be 705e be3e

fc2.weight f4 [128, 258]
-0.11483577 -0.06251032 0.034134872 -0.31374517 -0.05828973 -0.45798272 -0.14754719 -0.029062081
-0.03609584 0.043716177 -0.021045046 0.071192704 -0.029390851 -0.4288944 -0.27693844 0.058552224
0.1094722 -0.21760936 -0.03276479 -0.041565 -0.025591196 -0.0009788293 -0.11280983 0.10320028
-0.2326082 -0.27459076 0.03265882 0.1245586 -0.336268 -0.06351546 -0.036368497 -0.08785748
-0.099730335 0.04637605 0.059668526 0.10905238 -0.11988007 -0.25974253 -0.10956432 0.00020573927
-0.09596684 0.07086781 -0.30281007 -0.35095048 -0.14023641 -0.40376425 -0.20109056 -0.07624101
0.08263987 -0.63942206 -0.16003934 -0.1318123 0.08991549 0.227371 -0.16943207 0.15301202
-0.015753977 -0.227764 -0.17416917 -0.27390513 -0.053246893 -0.20901948 -0.1730373 -0.16231161
-0.0057446016 -0.051896956 -0.1735495 -0.31274882 -0.10502642 -0.17457205 -0.32834834 -0.008851799
0.015768925 -0.16943987 -0.1153261 -0.17197745 -0.20253475 -0.09126687 -0.24321118 -0.056231536
-0.13581938 -0.11492581 0.010472871 0.17075334 -0.16821241 0.04710484 -0.32727334 -0.06758965
-0.2453847 -0.005891508 -0.056691244 -0.2754269 -0.07139598 -0.046378203 0.15522304 -0.15345056
-0.18227728 -0.25905654 0.07427737 -0.14589006 0.22058548 0.08333544 -0.25783712 0.0073379944
0.072677135 -0.06341843 -0.08221272 -0.07183643 0.06380348 -0.21872556 -0.45329666 -0.2893296
0.049811475 -0.07369389 -0.0781215 -0.030925054 -0.068327144 -0.39449453 -0.014534274 -0.02178741
-0.08783517 -0.30831483 -0.051158514 0.005280866 0.015059656 0.010839647 0.06272053 -0.0602071
0.002761236 -0.17171258 -0.15780462 0.109432764 -0.36314997 -0.24924627 -0.20193182 0.08221013
-0.104665555 -0.1968253 0.011011187 -0.58143777 -0.051568277 -0.08105849 -0.17244534 -0.19190854
-0.18096392 -0.0640929 -0.12955375 -0.066341735 -0.086456075 -0.33569396 -0.15040974 0.05523123
-0.324161 -0.041629612 -0.031062882 -0.04459324 -0.10339889 -0.25241977 -0.17282574 -0.1389903
-0.31230822 0.220257 -0.113275036 -0.12328546 -0.1787388 0.10038568 -0.07329817 -0.12540141
-0.1498212 0.02982993 -0.100576885 -0.44641876 0.0067439186 -0.0022959092 -0.04174571 0.047739673
0.10921583 0.020622458 -0.041964345 -0.080815054 -0.04581232 -0.21064597 -0.21568404 -0.014299701
-0.100580215 -0.30134472 -0.013243835 0.25713164 -0.08640208 0.026495693 -0.081423275 -0.15358984
0.013040921 -0.21705578 -0.0518203 -0.18173699 -0.057616644 0.010461654 0.06278955 -0.30611467
0.05319789 -0.43516445 -0.048533577 0.026605941 -0.13707772 0.25485006 0.23372446 0.141767
-0.2563283 -0.15629777 0.044466488 -0.08181009 -0.18320118 0.10416592 -0.22273101 0.04837443
0.1803136 -0.043252535 0.023853762 0.104674645 -0.054038465 -0.12371074 -0.0008397742 -0.15805604
-0.05016885 -0.08806685 -0.20490682 0.0936517 -0.09843473 -0.00055053964 0.06852806 -0.051509045
-0.0390338 -0.27475628 -0.018544128 -0.26834792 0.021984186 -0.11361616 -0.010283781 0.07004918
0.229577 0.1904417 0.08686064 -0.34188825 -0.19083126 0.09175427 0.11850745 -0.22969049
-0.04239748 -0.015777692 -0.5197585 -0.8349666 -0.12866879 0.2827745 -0.37919238 -0.01518816
00000000: 042f ebbd 6905 80bd 02d1 0b3d 35a3 a0be
00000010: 36c1 6ebd b67c eabe 9c16 17be 9a13 eebc
00000020: 3bd9 13bd bc0f 333d a966 acbc 7bcd 913d
00000030: 15c5 f0bc 0c98 dbbe e0ca 8dbe 75d4 6f3d
00000040: f632 e03d fdd4 5ebe 5f34 06bd 1040 2abd
00000050: a1a4 d1bc 104c 80ba d708 e7bd ab5a d33d
00000060: d830 6ebe 2997 8cbe 41c5 053d 9418 ff3d
00000070: 522b acbe 6514 82bd 22f7 14bd 9fee b3bd
00000080: 6b3f ccbd d0f4 3d3d fc66 743d db56 df3d
00000090: af83 f5bd f9fc 84be 4263 e0bd b7bb 5739
000000a0: 438a c4bd 2423 913d ec09 9bbe c8af b3be
000000b0: 229a 0fbe 30ba cebe afea 4dbe 3f24 9cbd
000000c0: 183f a93d 2ab1 23bf 5ae1 23be cef9 06be
000000d0: 9d25 b83d f2d3 683e 9a7f 2dbe 2faf 1c3e
000000e0: 7c0e 81bc f73a 69be 6759 32be 4b3d 8cbe
000000f0: 6a19 5abd 3409 56be b130 31be 0435 26be
00000100: 363d bcbb e791 54bd f6b6 31be 9d20 a0be
00000110: 1718 d7bd 04c3 32be 461d a8be 2307 11bc
00000120: d52d 813c a581 2dbe 1730 ecbd db1a 30be
00000130: 4565 4fbe 20ea babd 5a0c 79be 0a53 66bd
00000140: 3c14 0bbe 395e ebbd 6896 2b3c f7d9 2e3e
00000150: e03f 2cbe 01f1 403d 5f90 a7be 716c 8abd
00000160: 2046 7bbe 8d0d c1bb 1435 68bd c104 8dbe
00000170: 0e38 92bd 12f7 3dbd caf2 1e3e 2522 1dbe
00000180: e5a6 3abe 0fa3 84be bc1e 983d 3464 15be
00000190: 29e1 613e c5ab aa3d 3a03 84be 8f73 f03b
000001a0: c0d7 943d 86e1 81bd 245f a8bd fa1e 93bd
000001b0: 66ab 823d 98f9 5fbe 8016 e8be 0223 94be
000001c0: 1e07 4c3d d2ec 96bd 2afe 9fbd 8a56 fdbc
000001d0: 1aef 8bbd 30fb c9be 2a21 6ebc 837b b2bc
000001e0: ede2 b3bd 71db 9dbe 978b 51bd 1d0b ad3b
000001f0: c7bc 763c c698 313c 9f73 803d b89b 76bd
00000200: daf5 343b 6cd5 2fbe 8997 21be 491e e03d
00000210: cbee b9be 6a3a 7fbe 37c7 4ebe c95d a83d
00000220: e55a d6bd 928c 49be 4468 343c 1bd9 14bf
00000230: 4239 53bd fe01 a6bd 8395 30be ac83 44be
00000240: 9b4e 39be 2343 83bd bda9 04be 2dde 87bd
00000250: e20f b1bd 14e0 abbe 0305 1abe 243a 623d
00000260: 6ef8 a5be d083 2abd 9677 febc 67a7 36bd
00000270: ccc2 d3bd 2a3d 81be 3bf9 30be 7953 0ebe
00000280: dde6 9fbe 0d8b 613e befc e7bd 167d fcbd
00000290: 4e07 37be 0297 cd3d 5a1d 96bd 3a69 00be
000002a0: bb6a 19be e65d f43c 41fb cdbd 0091 e4be
000002b0: 17fc dc3b f776 16bb 8dfd 2abd ad8a 433d
000002c0: 8dac df3d 6ef0 a83c cee2 2bbd 5d82 a5bd
000002d0: b3a5 3bbd 94b3 57be 47dc 5cbe 4b49 6abc
000002e0: 00fd cdbd db49 9abe acfc 58bc c2a6 833e
000002f0: 93f3 b0bd 7f0d d93c 3fc1 a6bd a846 1dbe
00000300: 96a9 553c df43 5ebe 8641 54bd 4319 3abe
00000310: 6eff 6bbd 5b67 2b3c cf97 803d 10bb 9cbe
00000320: 08e6 593d e0cd debe 25cb 46bd b4f4 d93c
00000330: 1a5e 0cbe b57b 823e 7755 6f3e 5e2b 113e
00000340: 773d 83be 860c 20be 7e22 363d 0c8c a7bd
00000350: 1799 3bbe f154 d53d 9913 64be 4424 463d
00000360: 21a4 383e 9229 31bd f768 c33c a95f d63d
00000370: 7057 5dbd 0e5c fdbd 4b24 5cba 71d9 21be
00000380: da7d 4dbd 655c b4bd 18d3 51be 76cc bf3d
00000390: 2698 c9bd 1752 10ba 7158 8c3d 26fb 52bd
000003a0: e8e1 1fbd dbac 8cbe dbe9 97bc e664 89be
000003b0: 2e18 b43c 97af e8bd 4e7d 28bc f275 8f3d
000003c0: 3c16 6b3e 2603 433e fee3 b13d fa0b afbe
000003d0: 4569 43be aae9 bb3d 09b4 f23d fc33 6bbe
000003e0: fba8 2dbd 3840 81bc e50e 05bf 5fc0 55bf
000003f0: c0c1 03be d2c7 903e 8125 c2be c3d7 78bc

fc2.bias f4 [128]
0.07148178 0.22431813 -0.09054461 -0.06794304 -0.108220905 -0.20158473 0.005044832 -0.05072998
0.09248576 -0.11004696 -0.02164683 -0.037297633 -0.010251297 -0.104775734 -0.08853528 -0.09421302
-0.080973834 0.014354653 -0.056329045 -0.014272426 -0.08211116 -0.013556669 -0.2220217 -0.092643976
-0.064031765 -0.08983084 -0.064026594 0.037994195 0.0046880236 0.011919293 -0.0023319572 0.007118917
0.20271544 -0.055401362 -0.12669268 0.025226966 -0.021378344 -0.053011775 0.03732809 -0.021382973
-0.10664714 -0.1342564 -0.06497833 -0.047523778 -0.023894716 -0.056197688 -0.1188322 -0.26908135
-0.073148325 0.082164876 -0.079579316 0.13039103 -0.038648885 -0.061199125 -0.0146949515 -0.12728156
-0.020506034 -0.07868164 0.015025472 0.06577012 -0.02594475 -0.09418836 -0.090649895 0.16997395
-0.059261095 -0.10097664 0.20400691 -0.01853121 0.105430186 -0.090113185 -0.076007925 -0.05016673
-0.11453333 -0.12084698 -0.08854982 -0.11109093 -0.37184712 -0.005343253 0.008342898 -0.02340121
-0.2214866 -0.11736783 -0.09962631 -0.042526253 -0.07408397 -0.056509685 -0.11295089 -0.066422775
-0.005933107 -0.04183604 -0.05185326 -0.044608984 0.01644137 -0.023093406 -0.24968842 -0.08808539
-0.10034748 -0.08598148 -0.08449893 -0.016460223 -0.059848204 0.18143249 0.13733916 -0.09151024
-0.017742578 0.16730455 0.005388839 -0.1540313 -0.04454909 -0.028647847 0.12640941 -0.062115252
0.13964272 0.03594473 -0.041270763 -0.09010228 0.1480735 -0.10450957 0.19633704 -0.04289883
-0.008620911 -0.041485175 -0.046150576 -0.14253089 -0.054461583 -0.008378285 -0.09018282 -0.042981755
00000000: 0a65 923d a7b3 653e 746f b9bd b825 8bbd
00000010: eca2 ddbd 3a6c 4ebe 1e4f a53b 3dca 4fbd
00000020: 2d69 bd3d 4d60 e1bd b154 b1bc 67c5 18bd
00000030: 0ef5 27bc a994 d6bd fc51 b5bd c1f2 c0bd
00000040: 9cd5 a5bd c72f 6b3c 49b9 66bd e5d6 69bc
00000050: e529 a8bd ca1c 5ebc a859 63be 20bc bdbd
00000060: 1623 83bd 3bf9 b7bd 6020 83bd cd9f 1b3d
00000070: fe9d 993b 2349 433c c0d3 18bb ce45 e93b
00000080: a394 4f3e 8aec 62bd babb 01be c8a8 ce3c
00000090: a321 afbc e022 59bd 57e5 183d 582b afbc
000000a0: d169 dabd 827a 09be 5c13 85bd 4ba8 42bd
000000b0: dabe c3bc 8c2f 66bd 4c5e f3bd 08c5 89be
000000c0: cace 95bd 0f46 a83d 7bfa a2bd 3a85 053e
000000d0: 4b4e 1ebd efab 7abd 18c3 70bc 1956 02be
000000e0: 45fc a7bc d723 a1bd 662d 763c 7cb2 863d
000000f0: 168a d4bc d4e5 c0bd a7a6 b9bd a70d 2e3e
00000100: c3bb 72bd d7cc cebd 30e7 503e c4ce 97bc
00000110: c8eb d73d 438d b8bd 0baa 9bbd a17b 4dbd
00000120: 7390 eabd 9f7e f7bd 9c59 b5bd a483 e3bd
00000130: bf62 bebe 7416 afbb a7b0 083c e5b3 bfbc
00000140: 62cd 62be 8b5e f0bd e108 ccbd 0230 2ebd
00000150: 56b9 97bd b376 67bd cc52 e7bd aa08 88bd
00000160: 826a c2bb 445c 2bbd 1564 54bd e9b7 36bd
00000170: 0db0 863c 622e bdbc 52ae 7fbe 1d66 b4bd
00000180: fb82 cdbd 0f17 b0bd c60d adbd 97d7 86bc
00000190: 6423 75bd 70c9 393e a3a2 0c3e b969 bbbd
000001a0: e258 91bc e251 2b3e dc94 b03b 62ba 1dbe
000001b0: 1b79 36bd e4ae eabc 7871 013e 906c 7ebd
000001c0: 80fe 0e3e c83a 133d 880b 29bd 8b87 b8bd
000001d0: 94a0 173e 1d09 d6bd 940c 493e afb6 2fbd
000001e0: b93e 0dbc 5cec 29bd 6308 3dbd 9ef3 11be
000001f0: 1c13 5fbd 1345 09bc c5b1 b8bd a30d 30bd

fc3.weight f4 [1, 128]
-0.036571804 0.015404602 -0.015593744 -0.02020196 0.01100694 0.035996187 0.027286543 -0.009265786
0.01879509 -0.016730465 -0.011318854 -0.031092437 0.011161286 0.014029235 0.02361789 -0.0049984283
0.011515999 -0.009463099 -0.024591966 0.01292315 -0.005901949 0.007066439 -0.041385777 0.025273595
-0.010109948 0.024283081 -0.00042665115 -0.06648479 0.031211082 0.021648591 -0.0018421459 0.02028612
-0.020950155 -0.020927424 0.0073264674 3.8184447e-05 -0.017252065 -0.021798382 -0.022148421 0.0050290716
-0.024076086 0.0105771115 0.0019728697 -0.046524666 0.01667345 -0.029035473 0.0053159967 -0.02685818
-0.050105393 0.016539522 0.0016286781 -0.076537944 -0.036257032 -0.045658506 -0.010471518 0.024650116
-0.010435871 -0.024068845 -0.008160145 0.033324864 -0.035806883 -0.0049590087 -0.057737358 0.015746253
0.03545192 0.0076790466 -0.01616144 -0.029288087 -0.06232123 -0.04713634 0.0019494905 0.0007925717
-0.0040651723 -0.09901334 -0.035584163 0.007849982 0.018040849 0.016818034 0.023013864 0.027468417
-0.079851836 -0.01854227 -0.033375964 -0.0025443234 -0.02921149 0.009550627 -0.01520932 0.013255614
0.02168213 0.0017856498 0.00019611914 -0.0076364838 0.012826023 0.014291815 -0.044951197 -0.010044723
-0.009971069 -0.0018294081 -0.0039126547 -0.013804424 -0.00507621 -0.031193197 -0.02790306 -0.043821752
-0.009882472 -0.017470535 -0.011493697 -0.03627549 -0.024197655 -0.0294384 0.031143736 -0.016998114
-0.05156507 -0.06617807 -0.0272177 -0.101176485 -0.0139329545 -0.023882572 -0.01413388 0.006365951
0.0042674644 0.028241886 -0.032849193 -0.03782876 -0.052261766 -0.024675976 0.009831855 -0.001190293
00000000: 51cc 15bd 9563 7c3c e77c 7fbc 957e a5bc
00000010: 7456 343c bd70 133d 0788 df3c 86cf 17bc
00000020: 29f8 993c 540e 89bc b772 39bc 91b5 febc
00000030: d4dd 363c e0da 653c 4e7a c13c dbc9 a3bb
00000040: 9aad 3c3c 1d0b 1bbc 1775 c9bc 9fbb 533c
00000050: 2365 c1bb 968d e73b 2284 29bd 920a cf3c
00000060: 32a4 25bc 50ed c63c 26b0 dfb9 2d29 88bd
00000070: 62ae ff3c 6358 b13c 2974 f1ba 142f a63c
00000080: a99f abbc fd6f abbc dd12 f03b 3d28 2038
00000090: 3454 8dbc 8592 b2bc 9b70 b5bc e9ca a43b
000000a0: 363b c5bc 9f4b 2d3c 434b 013b a690 3ebd
000000b0: c296 883c cddb edbc d031 ae3b b005 dcbc
000000c0: 503b 4dbd e47d 873c 5e79 d53a edbf 9cbd
000000d0: 4182 14bd 6a04 3bbd bb90 2bbc 0aef c93c
000000e0: 37fb 2abc 072c c5bc 21b2 05bc a77f 083d
000000f0: 3daa 12bd 2e7f a2bb 027e 6cbd 49fe 803c
00000100: 0836 113d 83a0 fb3b ff64 84bc 92ed efbc
00000110: 8c44 7fbd 0912 41bd 0c86 ff3a 96c4 4f3a
00000120: 2335 85bb 82c7 cabd b3c0 11bd 369d 003c
00000130: 67ca 933c f9c5 893c 9287 bc3c 7205 e13c
00000140: 5c89 a3bd f5e5 97bc 3cb5 08bd aabe 26bb
00000150: ef4c efbc 3c7a 1c3c 8330 79bc 132e 593c
00000160: b99e b13c 770c ea3a 55a5 4d39 783b fabb
00000170: 3d24 523c 3828 6a3c bf1e 38bd 9f92 24bc
00000180: b25d 23bc c0c8 efba ba35 80bb f32b 62bc
00000190: 5656 a6bb e088 ffbc f594 e4bc 707e 33bd
000001a0: 18ea 21bc 5e1e 8fbc 0f50 3cbc 9c95 14bd
000001b0: 293a c6bc cd28 f1bc 2621 ff3c a13f 8bbc
000001c0: e535 53bd 5e88 87bd a7f7 debc 9e35 cfbd
000001d0: 0c47 64bc 62a5 c3bc ca91 67bc 7899 d03b
000001e0: 16d6 8b3b 875b e73c e08c 06bd 54f2 1abd
000001f0: 6f10 56bd 4625 cabc ca15 213c 9b03 9cba
