checkpoint_1_critic.pth (torch_old, 159770 bytes, 5 tensors)

fcs1.weight f4 [256, 24]
000000 87 29 3e 3d c3 3e 18 3d 52 9c ae 3c 6f 83 4e bd
       0.046426322 0.03716923 0.021314774 -0.050418314
000010 88 7f ba be 18 ea e5 be 1c b5 d8 bc 9c b4 8c 3c
       -0.36425424 -0.44905162 -0.026453547 0.017175965
000020 a1 9b 20 3d f2 b8 c9 bd 01 85 48 bd 60 8e 7f bc
       0.03921092 -0.09849729 -0.048954967 -0.01559791
000030 10 09 33 3d c8 80 32 3e e5 6c 50 3d a4 0c f1 bb
       0.043709815 0.17431939 0.0508851 -0.007356243
000040 05 12 fd 3b 18 1a 80 be 46 e6 44 3d 18 82 71 bc
       0.0077230954 -0.25019908 0.04807117 -0.014740489
000050 ad 5b 09 3f af 26 3a 3f d8 98 41 bd 91 2d 50 3c
       0.5365551 0.72715276 -0.047264904 0.012706176
000060 ab 40 1d 3c 59 1b 33 3e c0 a8 10 bd b3 9b 0a bd
       0.009597938 0.17490901 -0.035317183 -0.033839893
000070 68 53 72 be 3e ac 90 3d 68 5e 19 3c 45 9f 61 bd
       -0.2366463 0.070641026 0.009360887 -0.055083532
000080 1d a8 02 3d 3b 0d 1c 3e a6 bf bc 3b 6c a7 a7 3c
       0.031898607 0.15239422 0.005760151 0.020465575
000090 cd 51 aa bc aa 85 d5 3e 22 17 f8 bc f6 d4 96 3c
       -0.020790959 0.4170354 -0.030284468 0.018412095
0000a0 43 b0 72 3d 6d 3b 61 3e 9f e7 a5 bc fa 73 1a 3e
       0.059250128 0.21995325 -0.020252047 0.15083304
0000b0 a0 74 f3 3e 5c f1 01 3f 3b 92 b5 3c d0 08 37 3e
       0.47549915 0.5075891 0.022164455 0.17874455
0000c0 5f 94 9c 3d 89 02 1a be c4 41 f6 3b 9c a5 29 3c
       0.07645487 -0.1504003 0.007515164 0.010354426
0000d0 ed 8b 35 3d 1f 71 3c bf e7 18 ec 3c 3b b1 c2 3c
       0.044322897 -0.7361011 0.028820468 0.02376615
0000e0 08 4c 1b 3e 8e a3 bc bd d0 6b 3e bd b2 7f 0f 3e
       0.15165722 -0.09210883 -0.046489537 0.14013556
0000f0 ec b8 22 3e 4f fb 99 bf 58 a8 03 bd 4a e2 5d 3e
       0.15890855 -1.2029818 -0.032142967 0.21668354
000100 ac 73 c2 3e 07 0a 15 be 53 cb 7a 3d ec 54 40 3e
       0.37978876 -0.14554606 0.06122906 0.18782395
000110 f2 3d 42 3e bd dd 98 be 6d 6e 01 3b 32 d8 42 3e
       0.18968943 -0.29856673 0.0019749657 0.19027784
000120 12 9a b5 3d cf 85 15 3e 24 41 4a bc 5e bd 46 bd
       0.08867277 0.14601825 -0.012344632 -0.04852044
000130 0e 78 4e be 4e 5a d9 3e 34 7b a5 ba 2f e3 e7 bc
       -0.20162985 0.4245171 -0.0012625218 -0.028306572
000140 13 47 6d 3d ce 15 87 3e 1d 59 31 bd 25 68 c1 3d
       0.05792911 0.26383823 -0.043297876 0.09443692
000150 50 7d 76 3d 91 ff 5f 3e 7e 4c a9 3c 53 41 89 3c
       0.0601781 0.21874835 0.020666357 0.016754782
000160 0a c6 3a 3d 38 ae 86 3e 7e be bf bc d2 50 4b 3d
       0.04559902 0.26304793 -0.023406263 0.049637623
000170 9a 85 04 3f 9f dc a4 be d0 3a 09 bc f8 d4 29 3d
       0.5176636 -0.3219957 -0.008375838 0.04146287
000180 9e 3c 01 3e 92 03 60 be ba 65 d9 ba 52 de 32 3d
       0.1262078 -0.21876362 -0.0016586103 0.043669052
000190 7b 12 2e 3e 5b a6 e2 be f3 cf 71 3d 7a bc d1 ba
       0.16999237 -0.44267544 0.059036206 -0.0016001605
0001a0 91 2f 74 bc c2 0c 73 be f2 a4 aa bc 63 4c 1c be
       -0.014903919 -0.23735335 -0.020830605 -0.15263514
0001b0 63 75 47 3e 80 d4 de be 17 ad 2e bd 37 12 64 bd
       0.19478373 -0.435215 -0.04264554 -0.055681434
0001c0 52 a2 17 3e 74 19 ae be 77 ff 3a 3b d0 42 43 be
       0.14808014 -0.34003794 0.0028533617 -0.19068456
0001d0 07 50 e0 bd 0c 4c fa bd d3 1b 35 3d e4 a7 6e be
       -0.10952764 -0.12221536 0.04421599 -0.23306233
0001e0 ac a1 a3 3e ca 27 c9 3e 82 0f c5 3c 3c 31 5d 3e
       0.31959283 0.3928817 0.024055246 0.21600813
0001f0 54 6a 86 3e c0 fa a4 3e 24 7f 89 bc fc d5 32 3e
       0.26252997 0.32222557 -0.016784258 0.17464441
000200 17 51 a0 3e e8 ad 89 3e 91 65 9c 3c 0c 6d bc be
       0.31311867 0.26890492 0.0190914 -0.36801946
000210 57 f7 7a 3e 98 98 94 3e 0a e9 b8 bb b4 80 c8 be
       0.24508415 0.2902267 -0.005643015 -0.39160693
000220 27 71 d1 3e 5a 37 88 3e 97 ea aa 3c 7d 9e 00 bc
       0.4090664 0.2660473 0.020863814 -0.007850287
000230 dd 93 be 3d 09 af ee 3e 3d 6b 15 3d 36 a1 a5 bd
       0.093055464 0.46617916 0.036479224 -0.08087389
000240 a0 f9 1b 3e 75 3e e6 3e 74 3e e5 bc a0 4c f3 3c
       0.15231943 0.44969526 -0.027983882 0.029699624
000250 94 a4 3f be 7f f6 6c bd 3f 2f 4f 3c e1 68 aa 3d
       -0.18715125 -0.057852264 0.012645542 0.08320785
000260 12 17 1d 3e f4 5a 0c 3f c9 59 31 3d ab 7c 7b 3d
       0.15340832 0.54826283 0.043298516 0.06139819
000270 d6 54 1e be e8 33 a4 be 03 9e 1c bd c7 ce 6e 3c
       -0.1546205 -0.3207085 -0.03823663 0.014575667
000280 95 1f 60 3e 73 c0 04 3f 05 ee 46 3d 57 bc b9 be
       0.21887048 0.51856154 0.048566837 -0.36276504
000290 b2 b6 fe 3d a1 70 9c be ab 32 3c 3d b1 95 a4 be
       0.1243719 -0.3055468 0.04594676 -0.32145455
0002a0 6e 6f 98 3e 55 44 6e be a8 f7 1e 3d be ab 9c be
       0.29772514 -0.23268254 0.038810402 -0.3059978
0002b0 f9 f7 91 3d c3 ff e6 be 96 d7 94 3d 8c 15 91 be
       0.07127375 -0.45117006 0.07267682 -0.2833675
0002c0 f5 42 b8 3e fe ac 89 be c4 3b fe bc 5f ca f3 3d
       0.35988584 -0.26889795 -0.031034358 0.119038336
0002d0 eb a3 f2 3b 32 fd 9a be 24 05 26 3d 6e 5d 41 3e
       0.0074047945 -0.30271298 0.040532246 0.18883297
0002e0 38 94 81 3e d4 57 a7 be 94 5c 5d bd 7a da 19 3d
       0.25308394 -0.32684195 -0.054043368 0.03756187
0002f0 67 01 81 bd fc eb 34 3d 42 d2 04 bd 61 dc 03 3b
       -0.062990956 0.044170365 -0.03242708 0.002012037
000300 68 3a fb 3e 98 e0 a2 3d 11 a9 f8 3c 8c a7 52 bd
       0.49067998 0.07952994 0.030354055 -0.051429316
000310 ba 3f 7f 3e c7 ca 81 be 12 d3 52 3d 6d fc 9a bd
       0.24926654 -0.2535002 0.051470824 -0.07567678
000320 a2 09 e3 3e b5 ff bc 3c 6d 3a 85 3d 29 8f 2d bd
       0.44343287 0.02307115 0.065052845 -0.042372856
000330 34 42 29 3e 11 ad 72 3c eb e8 98 bc c2 09 f8 bd
       0.1652916 0.01481177 -0.018665751 -0.12111236
000340 2a 16 be 3e 38 bf 8c bd 94 4b c6 bd 64 d9 d0 3d
       0.37126285 -0.068724096 -0.09682384 0.10197714
000350 ce b0 c6 3d 0d 6e bc 3e cc 65 c2 bd ec b5 9e 3d
       0.097016916 0.36802712 -0.094920725 0.077495426
000360 02 73 9d 3d 4b 5a 83 3e c7 35 86 bd 1f 7b 9d 3d
       0.076879516 0.25654826 -0.06553226 0.07689499
000370 11 b4 63 3c a9 c2 12 bf e4 a1 1f 3b 68 28 8d 3d
       0.013897912 -0.5732828 0.002435797 0.068924725
000380 43 1a 53 3e ef 54 61 3e 98 39 d6 3c fd 30 a6 bd
       0.20615487 0.22005056 0.02615051 -0.081148125
000390 c1 7e 81 bd 6a 5c 06 bf e7 5c 2c bd 38 ae bb bd
       -0.063230045 -0.5248476 -0.042080786 -0.09164089
0003a0 05 24 ed 3d 93 6c a8 3e 18 46 d1 bd 3d f5 6c 3e
       0.11579136 0.32895336 -0.102184474 0.23140426
0003b0 06 85 32 be 4f c7 36 be cf 92 af bc 35 0f 48 3e
       -0.17433557 -0.17849468 -0.021432308 0.19537051
0003c0 68 49 6f 3c 11 77 90 be c9 90 79 3d ca 95 92 bd
       0.014604904 -0.2821584 0.060929094 -0.07157476
0003d0 8e a7 2f 3e d9 41 f3 be 59 c7 43 3d 05 a9 b7 bc
       0.17153761 -0.47511175 0.047797535 -0.022419462
0003e0 c9 a5 3e 3e 24 a1 b5 be 4e 0d 17 3d 45 8e 03 3e
       0.1861793 -0.35474503 0.036877923 0.1284724
0003f0 7c d7 80 3e ff c8 63 bf 7d d6 42 bd 5c e1 10 3e
       0.25164402 -0.8897857 -0.047567833 0.14148468

fcs1.bias f4 [256]
000000 79 4a 77 be 61 5a 2f be 8f 81 23 bd 95 2c 1f be
       -0.24149503 -0.1712432 -0.03991848 -0.1554435
000010 45 e7 cd be d7 be a3 bc 1d 8e 96 be a8 c5 83 be
       -0.40215507 -0.01998846 -0.294053 -0.25736737
000020 2f 99 2a bf 24 06 ac be ba 04 a5 bd 51 90 8f 3e
       -0.6663999 -0.33598435 -0.08057542 0.28039792
000030 2f 73 25 3e 85 1a 8a be 78 2b 7b 3d 63 c9 63 bc
       0.1615722 -0.26973358 0.061320752 -0.013902995
000040 f0 c9 58 3e 22 94 8c 3d d2 6a 9b be 70 75 3c bd
       0.21170783 0.068641916 -0.30354935 -0.046010435
000050 8e a3 76 be 29 7b e2 be 50 b7 88 be 16 cd 10 bf
       -0.24085829 -0.4423459 -0.26702356 -0.56562936
000060 aa e1 00 bf bb 69 e2 be 95 2b 3e be 4f c6 d3 be
       -0.50344336 -0.4422129 -0.18571313 -0.41362235
000070 74 17 a9 be 3e 03 06 be 4e 9e 34 be 07 8b ac be
       -0.33025706 -0.13087174 -0.17638513 -0.3369982
000080 22 21 97 bd 03 f5 6e 3c 88 3b 9c be de 15 fe 3d
       -0.073793665 0.0145847825 -0.3051417 0.124065146
000090 e4 fb 1a bf 5f ae 0b 3f 9b 99 7a be a4 e5 a0 be
       -0.60540605 0.54562944 -0.24472658 -0.31425202
0000a0 80 81 97 be c0 ec c8 bd c3 ba 8f 3e ae 8a 63 be
       -0.29590988 -0.098107815 0.28072175 -0.22220871
0000b0 e5 00 4c be e6 2d 14 3e d3 60 c8 be 0c 25 b8 be
       -0.19922216 0.14470634 -0.3913637 -0.35965765
0000c0 80 94 1b 3e 19 14 80 be 4b 3d 8a be dd fb bb be
       0.15193367 -0.25015333 -0.26999888 -0.36715594
0000d0 e4 a0 c1 3e 71 e1 7f be b1 8c a8 bd 3b 00 64 bc
       0.37818062 -0.24988343 -0.0822996 -0.013916071
0000e0 ee 0b 1f 3e c1 68 b0 be 48 b9 c2 be ed 7e a5 3e
       0.15531895 -0.3445492 -0.38031983 0.323234
0000f0 e1 d2 c0 3d bb 9c 1c be 9c 8c 36 be 3d 12 93 be
       0.09415222 -0.15294163 -0.17827076 -0.28724852
000100 33 b7 f6 be 48 29 c2 be 61 4b ad be db 85 9d 3e
       -0.48186645 -0.3792212 -0.33846572 0.30766186
000110 6f 4b a2 be 84 2f 95 be 24 c4 e7 be c3 3a 09 bf
       -0.31698176 -0.29137814 -0.4526683 -0.5360529
000120 ad 9c d5 be 98 c5 4f be 31 0b 5e 3e 7c f6 0b 3f
       -0.41721097 -0.2029022 0.21683957 0.5467298
000130 32 f0 e3 3c 8a 04 06 3e 1e fd 44 bc 08 bd da bd
       0.027824495 0.13087669 -0.012023238 -0.10680586
000140 e6 40 17 be a4 29 8d be 2e bb f3 be 52 b6 19 be
       -0.1477085 -0.27570832 -0.47603744 -0.15010956
000150 da 50 69 be 50 6f ea bd 2e 68 15 3b 20 76 0f be
       -0.22784749 -0.114470124 0.0022797692 -0.14009905
000160 08 25 c2 be 89 5e 50 3d 72 8f b3 be 3e ea 54 bd
       -0.37918878 0.050871406 -0.35070378 -0.051981203
000170 5b f9 71 bf 96 16 28 be 42 02 2e be 03 49 be be
       -0.9452111 -0.16414866 -0.16993049 -0.3716508
000180 db ea a5 3d 49 d0 46 bf 71 3d 87 3c 2f 71 94 bd
       0.08101436 -0.7766157 0.01650879 -0.072481506
000190 3e 7f fd 3d 72 82 b6 be 50 f1 62 3e 6e ba 14 be
       0.12377785 -0.35646397 0.22162366 -0.14524242
0001a0 49 94 dd be f1 ae 2a be fa b3 e6 bc 26 62 d5 bd
       -0.43277195 -0.16668297 -0.028161991 -0.10419111
0001b0 b6 00 93 3e 20 5e 8a be d3 37 df be 58 e1 0a bf
       0.2871148 -0.27024937 -0.43597278 -0.542501
0001c0 97 7d d4 be e3 92 23 bf 43 bf f6 be 64 d0 ed bc
       -0.41502067 -0.63896006 -0.48192796 -0.029030032
0001d0 82 42 83 3d e7 15 fb be c0 67 91 be c3 c5 d4 bd
       0.0640917 -0.49040148 -0.28399467 -0.103892826
0001e0 f4 d0 02 bf 63 3a 07 be 64 79 83 be 78 13 bd 3a
       -0.5110009 -0.13205867 -0.2567855 0.0014425358
0001f0 1f de 0f be cc 8e 84 be 0b a2 27 3e d5 67 a0 bd
       -0.14049576 -0.25890195 0.16370408 -0.078323044
000200 86 c3 7b be e5 a3 34 bf 5f 89 0a bf 61 a6 ba bd
       -0.24586305 -0.70562583 -0.5411586 -0.091137655
000210 17 56 9f be 9c 9c ec 3e 98 43 e5 3e 0a 95 b3 3e
       -0.3112037 0.46213233 0.44778132 0.35074645
000220 f1 2f 9e bd c1 9c 4f 3d 0c ac af 39 31 b0 8b bc
       -0.07723988 0.0506866 0.00033506786 -0.017051788
000230 1e db ec bd 34 b5 fb 3c a9 71 24 be 44 7c cf be
       -0.11565231 0.030726053 -0.16058983 -0.40524495
000240 53 5e b3 3c c7 51 83 be 09 9e 00 bf 3e ae 3f be
       0.021895563 -0.2564833 -0.5024114 -0.18718812
000250 17 ad 1b bf b4 c9 40 3d 75 21 07 be 53 c4 18 3e
       -0.6081099 0.04706736 -0.13196357 0.14918642
000260 19 50 1a be ff ae 59 bf 6d 0f 74 bd cd 34 1f be
       -0.15069617 -0.8503265 -0.059585024 -0.15547486
000270 2a 14 e3 3d 5d cb 8f be a0 6f 22 3e aa 4e d7 3d
       0.1108783 -0.2808484 0.15862894 0.10513051
000280 36 10 b6 be 2b a7 4a be 00 3d 9a be da 4c 64 be
       -0.35559243 -0.19790332 -0.30124664 -0.22294942
000290 db 01 cd be aa 6f 45 be 0f be d6 bc 7c a5 40 3e
       -0.40040478 -0.19280878 -0.026213674 0.18813127
0002a0 43 74 0e 3c 69 17 c1 3d 37 8c 8a 3e 1e 15 9e be
       0.008694711 0.09428293 0.270601 -0.30875486
0002b0 90 7f 12 bf 0d e0 1e bf 43 04 2a bf f7 0c b0 be
       -0.57225895 -0.62060624 -0.6641275 -0.3438489
0002c0 55 67 2d bd 9c fe df be 2e 94 02 bf 0f 81 32 be
       -0.042334873 -0.4374894 -0.51007354 -0.17432044
0002d0 a5 23 ac be cc 5a 10 be 11 d5 1f be f0 5a 16 be
       -0.33620945 -0.14097136 -0.15608622 -0.14683127
0002e0 5d bb 27 3e 24 ba a5 be a1 f7 42 3e 1e bd 56 be
       0.16380067 -0.32368577 0.19039775 -0.2097058
0002f0 6d e7 8b bd ec 8f 59 3d 35 de 9f bd 4e d8 7c be
       -0.0683125 0.05311577 -0.078060545 -0.24691889
000300 22 f4 5e 3e fa bc eb be 21 c2 e0 bd 82 33 fc be
       0.21772817 -0.46042615 -0.10974527 -0.49258047
000310 e0 bb 91 be cf 4a b5 3e 50 43 cd 3e 50 b9 00 be
       -0.2846365 0.35408637 0.40090418 -0.12570691
000320 99 34 73 be ee ac 83 bd 44 7b 3d bd 16 c2 df be
       -0.23750533 -0.06429468 -0.046260133 -0.43702763
000330 45 6f 82 be b5 67 25 3f a7 be ef be 2f ec 9a 3c
       -0.25475517 0.6461137 -0.46825144 0.01891145
000340 74 99 d2 be 16 2f dd be 72 ab c5 3e 36 8e e9 be
       -0.411327 -0.43199986 0.38607365 -0.4561631
000350 a4 59 a6 3d 93 b0 91 be e9 fb df be d1 df 33 bf
       0.08122566 -0.28455028 -0.4374688 -0.7026339
000360 d8 65 0e 3f 17 3b cd bd 33 93 f6 be ab c3 98 be
       0.5562415 -0.10021036 -0.4815918 -0.29836783
000370 fa c5 64 be 33 5b 7a be e1 d3 03 be 6b 95 7b bd
       -0.22341147 -0.24448852 -0.12873794 -0.061421793
000380 40 5b 96 be 2a c7 d2 be 47 cd 01 be 02 27 d8 bd
       -0.29366493 -0.41167575 -0.12675963 -0.10554315
000390 c7 40 9a be de bd ff 3c c7 57 d5 3e d6 dc db bd
       -0.30127546 0.031218465 0.4166853 -0.107354805
0003a0 4b 3f d2 be 9f 8e 92 bd 42 0e e1 3c 6e 3a b2 3d
       -0.41063914 -0.07156109 0.027472619 0.08702551
0003b0 54 79 b4 be cf 1a 3d bd 13 3f 49 be b8 23 b5 bc
       -0.35248816 -0.046168145 -0.19652967 -0.022111759
0003c0 be 55 9c be d8 fa e6 be b9 0f 47 bc a4 38 9d bd
       -0.30534166 -0.45113254 -0.012149745 -0.07676819
0003d0 1f 05 44 be a0 cb ae bd 72 c5 ea be c9 ed cc be
       -0.19142579 -0.08534932 -0.45853764 -0.40025166
0003e0 1b d1 5c be e9 35 e1 bd e5 10 8e be 47 3c 80 be
       -0.21564142 -0.10996611 -0.27747265 -0.25045988
0003f0 f2 4a bf 3d 5c 1b 09 3f e2 fb f6 bd af 4f e9 3d
       0.093404666 0.5355737 -0.120597616 0.113921516

fc2.weight f4 [128, 258]
000000 e7 52 49 bd 3e 9a cf bc fc 5c 97 3d 4b 0b 14 bc
       -0.049151327 -0.025342103 0.07390782 -0.009035896
000010 92 e3 25 3d 31 1f cd bc f2 25 aa 3d 19 6d 6c 3d
       0.04050023 -0.025039287 0.08308019 0.05772123
000020 e0 dc fe bd 68 1c 18 bd c9 d0 b7 3c 05 f2 e5 3c
       -0.12444472 -0.037136465 0.022438424 0.028069505
000030 f2 47 05 bd e4 0c c7 bd 26 1f 9c bd ac d7 0d 3d
       -0.032539316 -0.097192556 -0.076231286 0.03462951
000040 89 7a 03 be fb 26 27 bd ba 2a 18 3d 5e 88 e0 bd
       -0.12839712 -0.04080866 0.037150122 -0.1096351
000050 ed 2f 4f bc 7c c5 38 bd 60 7e e3 bc 5e fe 45 3c
       -0.012645704 -0.04511021 -0.027770221 0.012084572
000060 41 99 c1 bd 8c 82 64 bd f5 27 b0 bd 6b 67 5f bc
       -0.09453059 -0.05578856 -0.08601371 -0.013635497
000070 d9 12 78 3c 61 02 d8 bb e2 4c 2b 3d 91 20 94 bd
       0.015141212 -0.0065920805 0.041821368 -0.07232774
000080 78 f7 1c 3d f5 dd 35 3c fd 40 36 be fa 76 1f bc
       0.038321942 0.011100282 -0.17798229 -0.009732956
000090 f6 00 8d bc 02 b5 4f 3d 7c 7c b3 bd 41 de eb bd
       -0.017212372 0.050709732 -0.08763978 -0.11517001
0000a0 f8 0f fb bb e3 b0 12 bd e5 71 86 bd 4c 4b f4 bd
       -0.0076618157 -0.035813224 -0.065646924 -0.11928424
0000b0 1f 6b 67 bd e5 df fd bd 8c f9 11 bd 6a d3 2a be
       -0.056498643 -0.1239622 -0.035638377 -0.1668221
0000c0 a8 ff 77 bd 6b c3 a9 bc e6 71 a7 bd 3c a0 15 bd
       -0.060546547 -0.020723065 -0.08176021 -0.036529765
0000d0 44 54 95 bc 60 95 3b 3d 91 24 45 bd 2a db 58 3d
       -0.018228658 0.045796752 -0.048130576 0.052943386
0000e0 c2 53 60 3c 14 b7 28 3d 97 49 ad bc 00 90 c9 3b
       0.013691844 0.041190222 -0.021153254 0.0061511993
0000f0 ff e1 82 bd 30 1b 3d bd 1e 98 65 3d f5 dd 03 be
       -0.063907616 -0.046168506 0.056053273 -0.12877639
000100 1e 6a 39 bd f3 bc d5 bd 53 63 1c bd 52 fa f1 bd
       -0.045267217 -0.1043643 -0.03818066 -0.11815323
000110 22 16 a0 3b 91 42 ac bd 59 53 93 bc 27 6e 76 3d
       0.004885451 -0.08411134 -0.01798408 0.060163643
000120 de c4 af bd 0e 05 a4 bc 25 54 ab bd 82 79 7d 3b
       -0.08582471 -0.020021942 -0.08365659 0.003867716
000130 62 72 ff 3b b9 f1 cd 3c d2 77 b0 3c 87 cd d8 bd
       0.007795618 0.025139676 0.02154151 -0.10586076
000140 2e 12 8f 3a e5 4d d6 bc ec 86 8d bb 7f b3 5e bd
       0.0010915452 -0.02616019 -0.0043190625 -0.0543704
000150 a5 d4 a7 3c 0c 5e 06 3d f5 89 4c 3d c9 63 9f 3c
       0.020487139 0.032804534 0.049936254 0.019456761
000160 7b 2d 9b bd 27 0f 5a bd af a2 db bc a9 b9 af bd
       -0.07577034 -0.053237107 -0.026810972 -0.08580334
000170 0a 1d c3 bd 2a a3 e3 bd 88 7d 86 ba 27 13 7b bd
       -0.09527023 -0.111151055 -0.00102608 -0.061297562
000180 7c 61 6b 3d 46 44 0e bd 1c 17 76 bd 17 34 e4 bd
       0.057466015 -0.03473308 -0.060080633 -0.11142748
000190 54 ff c3 3c c6 b9 d6 bd 5b a1 a7 bd 8b 91 03 bd
       0.02392546 -0.10484652 -0.08185073 -0.032121222
0001a0 70 0e d1 bc fc f3 c5 bd 2b 47 03 bd a1 95 c1 bd
       -0.02551958 -0.09665677 -0.032050293 -0.094523676
0001b0 f5 3d ae 3c eb 65 74 3c 30 e0 47 3c 6c c9 00 be
       0.021269778 0.014916877 0.012199447 -0.12576836
0001c0 49 0e 58 bd c9 87 83 bd 67 3f 8d bd d0 24 09 3d
       -0.052748 -0.06422383 -0.06896859 0.033482373
0001d0 f0 dd bf bd 2b 29 d4 bc 2b ab 88 3d db e1 7a 3d
       -0.09368503 -0.025898537 0.06673273 0.06125055
0001e0 53 bc 29 be 65 09 12 3d c9 6b b0 bd fc 18 c7 bb
       -0.16575746 0.03565349 -0.086143084 -0.0060759764
0001f0 9e be 64 bd 10 8b d3 bd a6 ca 45 bc 63 e8 b0 bd
       -0.05584585 -0.103292584 -0.012072241 -0.08638074
000200 cc 4c b7 bd 83 2e 3e bd e7 6e 8c bd 7d bc 6d bd
       -0.08950195 -0.046431076 -0.068570904 -0.058041085
000210 1e de b8 bb 62 3c 1b 3c 1f 69 e3 bc ab 55 49 bd
       -0.005641713 0.009474846 -0.027760087 -0.049153965
000220 74 ab 2d 3d 6b a3 ee bc a8 fd 2b bd 0f 18 85 3c
       0.04239984 -0.029130658 -0.041989952 0.016246824
000230 bf 8b 14 bd 3b a5 1b bb bd 25 02 bc 2c 25 47 bc
       -0.036266085 -0.0023749608 -0.007943568 -0.012154859
000240 95 ee 2a bd e7 82 80 bd 05 0a a5 bc 16 28 02 bd
       -0.041731436 -0.06274968 -0.02014638 -0.03177651
000250 4f 08 d2 3c 4c c5 a3 3b 8e dd ba bd 27 96 04 bd
       0.025638727 0.004997885 -0.091242895 -0.03236976
000260 3e 42 32 3d 6f e3 00 3d 33 7f 9d bd 9e 37 b2 bd
       0.043520205 0.031466898 -0.07690277 -0.087020144
000270 74 21 28 3c 5d 45 a5 3c b1 ac 64 bd 85 8d 9c 3c
       0.010261882 0.020174677 -0.055828754 0.01911045
000280 d6 94 a9 bd b5 6f 16 bd b7 03 10 3d 4e 45 bd bd
       -0.08280341 -0.036727626 0.035159793 -0.092417344
000290 2f 39 aa bd 18 d4 0b 3c ab c0 95 bd 59 fd 7a bd
       -0.08311688 0.008534454 -0.07312139 -0.061276767
0002a0 9b 1e f1 bb d6 17 9c bd 2c 6b b9 bd 4f 2e 31 be
       -0.007358385 -0.07621734 -0.090536445 -0.17302822
0002b0 54 35 98 3d f9 95 35 bd cf 65 42 bd e5 54 ca 3b
       0.074320465 -0.04433248 -0.047460373 0.006174671
0002c0 bb 0b 06 3d 57 37 dc 3c 14 1a bf 3c 15 4d a2 bd
       0.03272603 0.026881857 0.023327865 -0.079248585
0002d0 17 5d 99 bb cc fd 05 be e0 d8 1e bd 69 cf 5a bd
       -0.0046802866 -0.13085097 -0.038781047 -0.053420458
0002e0 af d8 f3 bd 38 64 cf bd e7 2e 8f 3c 2c 9d 2c bd
       -0.119065635 -0.10126537 0.01747842 -0.04214208
0002f0 c1 ef 57 bd 0a f8 aa 3c 01 23 ef 3b df 63 94 3c
       -0.05271888 0.020870227 0.007297874 0.018114028
000300 ac 85 9c 39 ff 97 8f bd 2b f1 34 bc 62 e1 27 bd
       0.00029854232 -0.07011413 -0.011043827 -0.040986426
000310 00 05 f2 bc ed 65 fa bc 61 6d 67 3d 1a 36 08 be
       -0.0295434 -0.03056618 0.056500796 -0.13301888
000320 52 af 4e 3d 92 85 45 bd 6b 44 f5 3c ac cc f4 bc
       0.050460167 -0.048223086 0.02993985 -0.029882751
000330 6c 60 36 bb 5f 00 9e bd d4 c5 38 3d e1 79 b0 bc
       -0.0027828468 -0.077149145 0.04511054 -0.021542491
000340 27 54 83 bd b1 c2 60 bd 72 c6 5f bd ee 76 2e be
       -0.06412535 -0.054873172 -0.05463261 -0.17037556
000350 73 cf 3f bc 85 bf 30 bd 4f c1 8b bd ba d4 da bc
       -0.011707175 -0.043151397 -0.0682398 -0.026712764
000360 ea 96 04 bd 61 0d b8 bd 0c dc f4 3d 88 47 5f 3d
       -0.032370485 -0.08986927 0.11956033 0.054511577
000370 5b f2 c6 ba e5 51 4a bd 7e 29 b3 3d 8b 21 81 bd
       -0.0015178429 -0.049394507 0.087481484 -0.06305226
000380 65 f9 4e bd 78 35 d9 bd 83 b2 05 be d0 fb f2 bd
       -0.05053081 -0.106059015 -0.13056378 -0.11864436
000390 05 63 8e bd 55 28 b5 bd 86 9e f0 bd 07 6f 15 bd
       -0.0695248 -0.08845583 -0.11748986 -0.036482837
0003a0 7a 19 2c 3d a8 13 ff bc a3 12 49 3c 92 2d 0e 3d
       0.042016484 -0.031137303 0.01227251 0.034711428
0003b0 04 86 f4 bd 1b 80 c3 bc 46 51 30 bb 94 a2 53 3d
       -0.11939624 -0.023864796 -0.0026903911 0.05166872
0003c0 9d 08 cd bb 92 57 6b bd 8e 47 7e 3c d8 75 bc bd
       -0.0062571303 -0.05745656 0.01551999 -0.092021644
0003d0 d4 c8 06 3d 40 2e 13 be 80 a5 8b bd 35 4a b4 3c
       0.03290637 -0.14373112 -0.06818676 0.02200804
0003e0 12 f1 ac bc 26 d7 df bd f5 5f 88 bd 4d b3 14 be
       -0.021111045 -0.10929708 -0.06658927 -0.14521523
0003f0 a7 8b 8a bd ca 5c 8f 3d 89 8f 02 3c 13 14 1b bd
       -0.06764918 0.0700012 0.007968792 -0.03786094

fc2.bias f4 [128]
000000 67 18 db bb 11 ff 00 bd c2 8f 93 bd 86 e0 29 3e
       -0.0066862586 -0.03149325 -0.07205154 0.16589555
000010 02 72 22 bd 80 53 73 bd 35 ae ae bc b2 0d 7e bb
       -0.039659508 -0.059405804 -0.021323303 -0.0038765487
000020 32 e1 71 3e e9 42 9d bd 13 dd 22 bb 47 91 60 be
       0.23621061 -0.07678778 -0.0024851009 -0.21930419
000030 ef 22 a9 bd 56 3f bc bd 34 fc 90 3e 32 87 0c be
       -0.08258616 -0.09191768 0.28317416 -0.13723448
000040 13 6d b4 bd b1 c3 c6 bb 5b 4f f7 bc 6d 57 26 bd
       -0.08809867 -0.0060658087 -0.030189207 -0.04061072
000050 20 7c ca bd 76 30 94 3c 6b 73 43 3d c1 eb 00 be
       -0.09886956 0.018089514 0.047717493 -0.12589933
000060 b1 f3 11 be 30 a1 1b be a9 e5 d9 bc b7 d5 84 3e
       -0.14253117 -0.15198207 -0.026598768 0.259443
000070 78 29 89 be 03 40 01 bc d8 48 da 3c ac de 3b bc
       -0.2678945 -0.007888797 0.026646063 -0.011466663
000080 4f ed 2b 3e df 14 da bc 06 a5 f1 bd 27 a4 e7 3c
       0.16789745 -0.02662128 -0.11799054 0.028276516
000090 f1 19 d2 bd 4f b3 9c bd 42 f2 c5 3c d7 4a 68 bd
       -0.10258854 -0.07651388 0.02416337 -0.056711998
0000a0 63 88 07 be 68 22 dd bd ba b6 0f bd 48 86 ed bc
       -0.13235621 -0.10797578 -0.03508637 -0.028994694
0000b0 26 37 8f bc 97 40 f6 bd af 89 e3 bd 6b 3c 04 bf
       -0.017482352 -0.12024038 -0.111102454 -0.5165469
0000c0 eb 36 72 be 96 64 74 bd ec 35 ee bd a8 ee 8f bc
       -0.23653762 -0.05966624 -0.116313785 -0.017569855
0000d0 98 5b 43 bd 58 75 d5 bd 72 f5 41 bc 3d ce 30 be
       -0.047694772 -0.10422772 -0.011838304 -0.17266174
0000e0 f1 54 14 3c 14 bb ce bd a6 cc 94 3b ef 2a d9 3d
       0.009053455 -0.10094276 0.0045409976 0.10603892
0000f0 c9 02 c4 bd 01 59 ba bd 91 42 58 bd 8d 9a 54 3d
       -0.09570844 -0.090990074 -0.052797858 0.051905204
000100 73 99 36 bd 29 ac 3b be a5 ba 29 3e b9 ba a4 3b
       -0.044579934 -0.18327393 0.16575105 0.005027142
000110 a7 7e 94 3b ca 48 d1 be 97 e4 d3 3d 3b 2d bd bb
       0.0045316997 -0.40875846 0.103463344 -0.005773214
000120 0b 97 a5 bd 50 7e 03 be d5 15 bf bd 8e 47 1b be
       -0.0808545 -0.12841153 -0.09330336 -0.15164015
000130 14 7e f8 bd d4 b7 8f bd e6 81 80 bc df 47 94 bb
       -0.121334225 -0.07017484 -0.01568694 -0.0045251693
000140 db 4c 82 3d da ad d2 bd c8 fa c7 3d 1d a9 0e bd
       0.06362315 -0.10287066 0.097646296 -0.034829248
000150 22 f3 7e bc 79 b0 91 bd c5 e1 e4 bd 8d 79 80 bd
       -0.015560897 -0.071137376 -0.111758746 -0.06273184
000160 5e 57 d4 3c 9f 57 3d bd 5b 7f 87 bd 90 09 59 bd
       0.025920566 -0.04622614 -0.06616088 -0.052987635
000170 45 eb 96 bd 52 4b 26 bd 6e e3 98 be 0c 00 9a bd
       -0.07369093 -0.040599175 -0.29861015 -0.0751954
000180 67 0c 5b bd ab 3a 11 be 22 bf 1c bd 93 de 6c bb
       -0.053478625 -0.14182536 -0.038268216 -0.0036143407
000190 9b 2f 73 3e a8 e5 81 be f4 70 a1 be 59 38 cf 3c
       0.23748629 -0.25370526 -0.3153149 0.025295423
0001a0 68 9c bc bc d9 83 ba bc 49 0a cc 3d 9c 2b f9 3d
       -0.023023799 -0.022767948 0.09962899 0.12166521
0001b0 88 f3 eb bc 34 4e 5c 3e 64 5f ef bc 53 d3 87 bd
       -0.028802648 0.21514207 -0.02922029 -0.06632104
0001c0 88 f7 d7 3d 11 b4 b7 bc 38 86 bf bc f1 14 98 be
       0.1054526 -0.02242473 -0.02337943 -0.29703477
0001d0 a6 61 9e 3e 52 ac c6 bd 2d a2 32 3e 34 20 f5 bc
       0.30933875 -0.09700836 0.17444678 -0.029922582
0001e0 97 c5 8c 3c f0 46 fb bc 81 bd c9 3d 52 7d ae bd
       0.017184062 -0.030673474 0.09850598 -0.08519997
0001f0 30 4e 8f be 02 18 16 bd 3d 1f af bd 6c 3a 02 bd
       -0.2798934 -0.03664399 -0.0855088 -0.031793997

fc3.weight f4 [1, 128]
000000 8f 4c 1c 3c d6 65 cc 3c 6c 94 72 bc ae 3f 7f bd
       0.009539737 0.024950903 -0.014805894 -0.06231659
000010 ae 96 dc 3a c5 91 07 3d 7c d1 02 3c 4e 8d bd 3a
       0.0016829574 0.033098 0.007984515 0.0014461668
000020 f8 71 b5 3c 6e 0d 0c 3b c6 54 d1 bc 5a 48 c4 bc
       0.022149071 0.002137031 -0.025553118 -0.023960281
000030 4d 52 a3 bd 6b 8c 28 3c ad b9 07 bc 42 56 2b 3c
       -0.07974682 0.0102873845 -0.008284015 0.010457577
000040 2a 5e c4 3b 45 fb 25 3c 2a 92 d1 bc 1e 4a a3 bc
       0.0059926705 0.010130708 -0.025582392 -0.019932803
000050 32 a5 8e bb c6 1c e7 bc c7 db d5 3c 6d c9 d2 3b
       -0.004353189 -0.028211962 0.026105775 0.006432703
000060 e0 fb d7 3c 3a a6 7d bd 0e a2 9f bb c3 8e 6d bc
       0.02636522 -0.061926104 -0.0048716133 -0.014499369
000070 1f 6f 9f 3c b7 3a 58 bd f3 88 93 bc 58 a1 8e bc
       0.019462166 -0.05279037 -0.018009638 -0.01741092
000080 e7 fc 65 bc ef 0a 4e 3c fc d2 a9 bc f6 8d 2c bc
       -0.014037347 0.012575849 -0.020730488 -0.010531893
000090 d7 db 4a bd 17 b8 bc 3b 1e bb 07 bb 8f 3f 48 3b
       -0.049526062 0.00575925 -0.0020710896 0.0030555462
0000a0 7a d5 c1 3c 7e ad ce 39 f5 3e 22 3d a1 a8 16 bd
       0.023661364 0.00039420644 0.03961082 -0.03678191
0000b0 78 37 f1 ba 4d fa 19 bd 9c 44 1c 3b 71 a8 1b bd
       -0.0018403372 -0.03759222 0.0023844605 -0.038002435
0000c0 26 7a 20 bd b8 81 ee 3c 24 31 38 bc 30 c1 ac bb
       -0.03917899 0.02911459 -0.011242185 -0.005272053
0000d0 3e 1c d5 bb 64 80 c5 3b e1 9a eb bb 1d af 6e bc
       -0.006503611 0.0060272682 -0.007190094 -0.014568117
0000e0 53 f7 b0 3b 60 8e b9 3b 1e 7a 5b 3c 2a 8d b7 bc
       0.005400577 0.0056627244 0.013395814 -0.02240618
0000f0 55 8f ce bc 2d f7 05 3d d3 fa c3 3c d3 60 0d 3d
       -0.02521483 0.03270643 0.023923313 0.034516167
000100 40 03 54 3d 8a d0 1a bc c8 85 c6 3c 60 31 88 bc
       0.051760912 -0.009449134 0.024233714 -0.016625106
000110 dc 31 27 bd ad 62 d6 bc ea 9a ed bc 43 68 5a 3c
       -0.040819034 -0.0261701 -0.029004533 0.013330522
000120 e8 aa cf 3c 4c e2 2c bd 21 31 ab 3c 0c 12 c3 bd
       0.02535005 -0.042208 0.02089745 -0.095249265
000130 9e c4 19 bd 44 3d 00 3b 6a b0 a7 bb 51 81 dd 3b
       -0.037541024 0.0019567767 -0.0051174657 0.0067598005
000140 ae e8 6a 3d cc 7b 4f 3c d4 20 6f 3c 34 da 1f 3b
       0.057350807 0.012663793 0.014595229 0.0024391534
000150 4c 8d fb ba f7 35 03 bc 34 93 de bc b3 0f 0e 3a
       -0.001919189 -0.008008472 -0.027169801 0.00054192095
000160 be 87 c0 bb c9 3f e2 3a 27 22 ca 3b d1 9a 5b 3c
       -0.0058755567 0.0017261441 0.006168622 0.01340361
000170 1d f3 bc ba 1f 09 78 3c c3 9f 83 bd 44 66 e2 bb
       -0.0014415715 0.015138893 -0.064269565 -0.0069091637
000180 71 b7 bb 3c 29 29 3c bc cc 94 83 b9 d3 57 0e 3c
       0.02291462 -0.011484423 -0.0002509713 0.008687931
000190 08 9f bb 3c 39 39 40 bd 6c ed 84 3d 9d 7d 41 3d
       0.02290298 -0.04692957 0.06490597 0.047238935
0001a0 5d 9a 45 3c 4c ac 5b bc f4 88 62 bd 8c 1c fc bc
       0.012060729 -0.013407778 -0.05530639 -0.030775331
0001b0 bc df 83 bb f4 59 c0 3c fd 8a 73 bc 41 a5 d3 bb
       -0.004024474 0.023480393 -0.01486468 -0.006458909
0001c0 b7 85 7a bd 48 d1 ab bc f7 ed 11 bb a2 25 6f bd
       -0.061162677 -0.020973817 -0.0022267082 -0.0583855
0001d0 3e 87 9a bc 9f 8f 43 bc bf f0 df bc ca 8c a2 3b
       -0.018863317 -0.011936097 -0.027336476 0.004960631
0001e0 f1 ca 09 3b 70 34 32 3c b5 40 29 bc 8b 51 32 bc
       0.0021025504 0.01087676 -0.010330369 -0.010883699
0001f0 55 2c da bc 12 1b dd bc f3 fb a5 3a 4f 13 c6 3c
       -0.026632467 -0.026990447 0.0012663588 0.024179129
