checkpoint_2_actor.pth (torch_old, 159260 bytes, 6 tensors)

fc1.weight f4 [256, 24]
00000000: fd2e 873b ca1b 9a3e 54ac d03c beab e6bc
00000010: f528 42bf faca 5ebe 0be7 f53c 8318 483d
00000020: fc97 05be 62ab f53d 47b4 8fbd a268 aa3d
00000030: ad58 0e3e 0539 5b3d 23ed 04bc e0ad 0b3e
00000040: e04a 8dbd b9b9 343e e39c dfbd 0da3 203e
00000050: fcd2 1d3f 1412 bb3d 5454 33bd fac4 e43d
00000060: 6758 233e 3ea7 f13e 40c0 d3bd 29f5 d13b
00000070: 4f40 e63d 5770 81be da4e c2bd 4ad7 b0bd
00000080: 40b7 463e e725 ed3e 9a11 283e 806e 923e
00000090: ae75 2a3e c23a 96be 5c05 ef3d 2695 973e
000000a0: c36d 953e 2e1c e43e 52b6 1ebe a10e b9bd
000000b0: 6dc5 773b 57d9 babe dad3 e0bd bec3 03be
000000c0: 1ce5 a43d 502e 5e3e dd35 903d 3b0a 223e
000000d0: 122b a2be b9fc 0bbf 0453 4abc 3993 d53d
000000e0: f4cb 3e3e 962f 8a3e 994a c5bd 828c 8a3d
000000f0: 9798 43be 59f5 81bf 9300 9ebd 662c b33d
00000100: 6e98 803e f7ab 293e 2ce2 f53d 82d5 5ebe
00000110: 297a 26bd 1d53 c2bf 2e6f 2a3e 67e8 11be
00000120: fb3c cb3e 98db 883e 1631 423d 2a8b 00bf
00000130: 31e7 2bbc 139b 413d 15e1 913d 4653 02bf
00000140: 57d6 893e d473 363d 6a7e 013d d04b 44be
00000150: 8ae1 c33d 40f7 cb3d 007d 8f3d bf73 f5bd
00000160: 05d9 543e c9b9 30bd 8e1f 51bc 2fae 57bd
00000170: 5ef4 573d 2a2d 663e 3e74 ab3d 5a3a bdbc
00000180: f7d7 b23d a10b d5bd caac 4d3d 4624 87be
00000190: 1bef c93e 7233 f6be b673 63bd 7a20 acbe
000001a0: 7de7 f93d e237 303d 12d0 09be 9204 f6bd
000001b0: 36ae 9a3e 2e63 eabd 899a e6bd 9f54 58bd
000001c0: 5b53 653e 715d 6d3d 4f5c dd3d 85e6 cfbd
000001d0: cc20 04be 6841 b33e 6d40 163e d03a 08bd
000001e0: 3a51 f33d d866 123e a9bb 253d 36d3 873d
000001f0: a1f1 c43e 8214 983e 4c0c f33d 4328 ad3d
00000200: 3dec 653e faab d33e 30d0 82bc 4b8a c5bd
00000210: a764 93bd 6cae 113e 3675 533d eb57 90bd
00000220: ffa5 8a3e 55bc 7e3e b868 a73d fc2d 4dbe
00000230: 093a e6be e279 943e be49 b83d 3801 68be
00000240: d9f3 583c 53cb b0bd 263d 2a3d 18c6 023e
00000250: 21d3 153f 1c10 8abf d554 8d3d e775 5e3e
00000260: 07a2 8c3e b7df d23d 0cd8 963d cf98 553d
00000270: 6757 ae3e 960c 14bf 80ac 563d 1655 773d
00000280: 560d 89bd d251 52be e352 533d 215f b4bd
00000290: 730c cb3d 7930 d33e c9e9 4a3d 28ba 6abd
000002a0: a8dd f03c 432f 88bd 51b0 5ebc c05c ff3d
000002b0: a0fd de3d bc32 f6be 789e 6a3c 018a a13d
000002c0: 3b9e ce3d dec9 d03b 3e9a 83bc c283 8dbe
000002d0: 3158 023e da3f 1dbf d2db 2dbb c2ab 89be
000002e0: 178f e93d 6df5 31bc e22b 81bd 22dd 843d
000002f0: fc72 8c3e 6cbe 81bf d0c5 5c3c 14e7 393d
00000300: 748e 053e 693e 0e3f 5adb 27bd a985 a63e
00000310: 9b51 b43e f7e4 9b3d 1ace 1dbd 4189 993e
00000320: 9c19 243e c62d fe3e 09c2 8dbd 0909 fd3d
00000330: 1617 95bd 6346 fa3d 35b8 48bd 9fda 173e
00000340: 1ed4 7b3e 12cd 123f f77b 0bbe 993a 2b3e
00000350: 96cd a9be b8e2 443d d307 5bbe 42bb ce3d
00000360: e510 553d 68af 12be 27bb 723d 63a9 593c
00000370: 5377 ed3d df1f 473f a13f 513d 24ef fc3c
00000380: 7253 ccbc 3eb0 36be d49a 58bb de9e b6bd
00000390: 26d9 03bc d122 94bd 3ef5 46bd c34b 23be
000003a0: 953e 243c 580e 3cbe 93d4 f43c 4e63 c3bc
000003b0: 8d7e e7bc d6df fabf 42e2 013e a8af 4cbd
000003c0: e4f0 993e 8327 0b3e 3ed4 85bd 536b c6bd
000003d0: 2b92 283e 7f56 cf3d c79d dcbd e966 28bd
000003e0: e5bd e23e 7578 233e 9e67 9cbd 0956 8ebe
000003f0: bd63 1f3e 3b0f 253d 541e f1bd 1d56 83be
0.0041254745 0.30099326 0.025472797 -0.028158065 -0.75843745 -0.21757117 0.030017396 0.0488515
-0.13046259 0.11995579 -0.07016807 0.083207384 0.13901015 0.053521175 -0.008113178 0.13640547
-0.06899047 0.17648973 -0.10918596 0.15687199 0.6165006 0.091343075 -0.043781593 0.11170383
0.15951692 0.47197908 -0.10339403 0.006407399 0.11242735 -0.2528102 -0.09487696 -0.08634813
0.19405842 0.4631798 0.16412964 0.2859993 0.16646454 -0.29341704 0.11670944 0.2960598
0.29185304 0.4455275 -0.15499237 -0.09035993 0.0037806884 -0.36493942 -0.109779075 -0.12867638
0.08051512 0.21697354 0.070415236 0.15824215 -0.31673485 -0.546825 -0.012348894 0.10428471
0.1863249 0.2698943 -0.09633369 0.06765081 -0.19101177 -1.0152999 -0.07714953 0.08748703
0.25116295 0.16569506 0.120060295 -0.21761134 -0.040643845 -1.5181614 0.16643974 -0.1424881
0.39694962 0.26730037 0.047410093 -0.5021235 -0.010492132 0.04726703 0.07123009 -0.50908315
0.2692134 0.044544056 0.0316147 -0.19169545 0.095645025 0.099592686 0.07006264 -0.119849674
0.20785911 -0.04314593 -0.012763871 -0.05265635 0.05272328 0.22478166 0.08371781 -0.023099113
0.08732598 -0.10402609 0.050213613 -0.26394862 0.39440235 -0.48086125 -0.055530272 -0.33618528
0.12202356 0.043022044 -0.13458279 -0.120125905 0.30211037 -0.11444698 -0.11259944 -0.052815076
0.22395079 0.05795044 0.10808622 -0.1015139 -0.12903136 0.35010839 0.14673014 -0.033259213
0.11880727 0.14297044 0.04046217 0.06632082 0.38465598 0.29703146 0.1186758 0.08454945
0.22453399 0.41342145 -0.015968412 -0.09645518 -0.07196932 0.14226693 0.051625453 -0.07048019
0.2707977 0.2487653 0.081742704 -0.20037073 -0.44966152 0.2899924 0.0899844 -0.22656715
0.013241732 -0.08632531 0.041562222 0.1277088 0.5852528 -1.0786166 0.06900946 0.21724664
0.27467367 0.102965765 0.073654264 0.052147683 0.34051058 -0.57831705 0.052410603 0.06038388
-0.06691997 -0.20539024 0.05159272 -0.08807207 0.09914484 0.4124792 0.04953936 -0.05730644
0.029402569 -0.066496395 -0.013591842 0.124688625 0.10888219 -0.48085582 0.014320008 0.0788765
0.10088774 0.0063717207 -0.01606476 -0.27639586 0.12728955 -0.61425555 -0.0026528728 -0.26888853
0.11404245 -0.010861737 -0.06307198 0.0648749 0.27431476 -1.0136237 0.013474897 0.04538639
0.13042623 0.5556398 -0.040980674 0.3252385 0.3521851 0.07612031 -0.038526632 0.2998753
0.16025394 0.49644297 -0.06921775 0.12355239 -0.07279794 0.122204565 -0.0490038 0.14829491
0.24592635 0.5734416 -0.13621508 0.16721572 -0.33164662 0.04806778 -0.21389703 0.1009431
0.052018065 -0.14324725 0.059260514 0.013285014 0.11595025 0.77783006 0.051086072 0.03087575
-0.024942134 -0.17840669 -0.003305127 -0.0891702 -0.008047378 -0.07233203 -0.048573725 -0.1594687
0.010024686 -0.18364847 0.02988652 -0.023851063 -0.028258586 -1.9599559 0.12683967 -0.049972206
0.30066597 0.13589291 -0.065346226 -0.09688439 0.16462009 0.1012392 -0.10772281 -0.041113768
0.44285503 0.1596392 -0.07636951 -0.27800015 0.15565391 0.040297728 -0.11773363 -0.25651637

fc1.bias f4 [256]
00000000: ea6a 49be 79b1 8ebe 6c1d 40bd bb08 8c3c
00000010: f2a3 93be 5928 d1be dd1c 5bbe 9dbc 3ebe
00000020: c270 ebbe 0f1d b23e 4b87 b4be 330f ddbe
00000030: ce02 00be 042c 6bbe 2615 eabd 99b0 dcbd
00000040: 360f d5bd 94e3 d8bd 79d1 afbe 5dfe 96be
00000050: b819 b4be 987d 05bf 4262 8d3c a2e7 d4be
00000060: bbcd a0be d194 febe 78a3 9a3d 2f6f 4ebe
00000070: 6ec2 fcbe 5e99 97be 2a88 cfbe cbc8 cbbe
00000080: 761f 22be d83c c5bd 0b61 f8be 3cc0 9abd
00000090: 493f e6be f7c1 123f 085c 83be 8a90 313d
000000a0: c305 c2be 9d27 0cbf 4f95 acbe 51c2 f6be
000000b0: d568 a9be 6104 41be e98f ecbe c09f 8bbe
000000c0: b9d4 b23d cf2a 0fbe 163e 1fbe 7223 923d
000000d0: 406e 71be 9b8f 18bf e9f5 a9be 6032 223f
000000e0: 351c 193e b4e6 c2be 7cb7 32bf 008e 0ebd
000000f0: 3109 babd f5a0 9dbe 05d7 9dbe b787 9ebe
00000100: 0e9e 50bd afd2 c9be 4178 d9be ded0 4d3d
00000110: e4ba 16bf b7e1 62be e7b9 233d a8f8 e0be
00000120: 9434 c5be cdda b5bd 7ab2 9dbd 5eb7 563d
00000130: 9a5f cebe fede d93d d8b8 8fbe 5a66 3ebd
00000140: c61a ef3d ad10 a2be f57c 22bf 771f 92be
00000150: 6081 34be 8c1b c33d 5106 1abf a5d3 9f3c
00000160: 2447 c7be 1194 48be 644d 6dbd 43b1 40bd
00000170: 372d d8be 0450 cbbd ca32 45be 9600 cdbe
00000180: 13f3 c1bc 3077 d9bd 8212 93be 01c4 a23e
00000190: 67e2 1bbe 62c7 b9be 0405 89be 0941 9dbe
000001a0: 0f75 a4be 9f70 42be d7f6 023e 1357 88be
000001b0: a9ff 693e 450c b4bd 872c b53d 3620 13bf
000001c0: fdad 12bf 55c8 f8be 89e6 09be e28c d7be
000001d0: 89e4 5e3e d517 cbbe 6806 65be 86b0 6c3e
000001e0: 1d3a ebbe eb8e 64be 5174 563e 14d0 973e
000001f0: fba5 92be b79e 83bd 2ca7 1bbe 3256 02be
00000200: f75b 953e ce03 59be c03d 86be e9c4 b0bd
00000210: baa4 d8be d1ae acbe d948 3d3e ef1c cbbd
00000220: 2cb6 a23e 2fe0 9ebe 8f77 efbd 1663 c8be
00000230: 2e69 2b3e 1f62 a4be 7688 5dbe dd79 d2bc
00000240: 9ce4 fcbd 60cf eabe ab3a 43be 0f5b aebe
00000250: b62c b6be 8ee7 84bd c5a7 353e 6e60 95be
00000260: 45af 5abd 661c 68be 8bd3 d73c 8739 c7bd
00000270: 3942 2bbe 0ff0 f0be d698 a8be 77d1 753e
00000280: 1691 a7be 3847 d8be 0f7d 8c3d bc93 763e
00000290: 0225 70be f179 a0be 6b6d 31be 0e09 413e
000002a0: b182 26bd 82df 62be 2e70 b1be 3a29 67be
000002b0: 23f2 24bf e384 93be 8817 c1be 0e63 40be
000002c0: edaf 35bc 2bf3 013e 82c7 9cbe d028 81be
000002d0: a328 9bbe 574a fdbd feda 323e 4c4d d43e
000002e0: c12f 743d 2ba2 d8be ec49 13bf 27a7 10be
000002f0: 3e59 ecbe 9ae3 c1be 1d39 8dbe 5b99 b2be
00000300: 4a8a b4bc 4915 1fbf dfe5 c0bd 375c 10bf
00000310: d92a debe 57dc d0bd 384e 9fbd 1d95 843e
00000320: cb15 debe 32eb f3bd 3b29 9cbe 14d3 bcbe
00000330: 693e b3bd d56a 7f3e 59f9 cabe 3c8a 353e
00000340: 5144 0abe 5f5b f4be 2fb2 abbe 86ca cebe
00000350: b26b 54be ec24 5fbe 9d9f 0fbe 7457 30be
00000360: 803f 8fbe eb48 4cbe 26c1 823e 5337 39be
00000370: dadb 19be 3ec6 4fbe 09b2 173f 4152 40be
00000380: 54be 61be b3ee 57be 14cd 2bbe 4d09 8bbd
00000390: f4bb b5be 47fd bbbd b83a 943e b15c a33d
000003a0: 1ce2 b4be dc53 60be 48d2 79bd 7a62 43be
000003b0: acbe c7be 181a 0abf cd73 86be bd8a a13d
000003c0: 6abb e3be 1b0e 93be 1476 873d 7aad 3ebe
000003d0: 64de 4c3e 3523 9abd ef5a d4be bd62 53be
000003e0: ec7d d6be 5ddf bdbe 4798 acbe 2bc2 2b3e
000003f0: faf5 8d3c de16 f7bd 9be1 f9be 8560 51be
-0.1966969 -0.27869776 -0.04690306 0.017094007 -0.28836018 -0.40851095 -0.21397729 -0.18626638
-0.45984465 0.34787795 -0.3525947 -0.4317566 -0.1250107 -0.2296601 -0.11429815 -0.10775871
-0.10403292 -0.10590282 -0.34339502 -0.2949094 -0.35175872 -0.52144766 0.017258767 -0.41582972
-0.3140696 -0.49722913 0.075507104 -0.201596 -0.49367088 -0.29609197 -0.40533572 -0.3980163
-0.15832314 -0.09630746 -0.48511538 -0.07556197 -0.44970158 0.57327217 -0.25656152 0.043350734
-0.3789502 -0.54747945 -0.33707663 -0.48195127 -0.33087793 -0.18849327 -0.46203545 -0.27270317
0.0873198 -0.13981174 -0.15551028 0.07135667 -0.23577213 -0.59594125 -0.33195427 0.63358116
0.14952166 -0.38066638 -0.69811225 -0.03480339 -0.09083784 -0.30786863 -0.3082811 -0.30962917
-0.050931983 -0.3941855 -0.4247456 0.05024802 -0.5887892 -0.22156416 0.039972212 -0.4393971
-0.38516676 -0.088796236 -0.07700057 0.052420966 -0.40307313 0.106382355 -0.28070712 -0.04648433
0.116750285 -0.31653348 -0.6347192 -0.2853963 -0.17627478 0.095267385 -0.6016589 0.0195101
-0.38921463 -0.19587733 -0.057935134 -0.04704405 -0.42221996 -0.09927371 -0.19257656 -0.4003951
-0.023675477 -0.10618436 -0.28725058 0.31790164 -0.15223084 -0.3628493 -0.2676164 -0.3071368
-0.3212056 -0.18988274 0.12789474 -0.26628932 0.22851433 -0.08791403 0.088463835 -0.57471025
-0.57296735 -0.4859034 -0.13466848 -0.42099673 0.21766867 -0.3966662 -0.22365725 0.23114213
-0.45942774 -0.22320144 0.20942809 0.2965094 -0.28642258 -0.06426757 -0.1520049 -0.12728193
0.29171726 -0.21192858 -0.26218987 -0.08631308 -0.42313176 -0.33727124 0.1848482 -0.09917628
0.3177961 -0.31030414 -0.11692726 -0.39138097 0.16739342 -0.3210611 -0.21634087 -0.025692875
-0.12348291 -0.4586134 -0.19065349 -0.34053847 -0.35580987 -0.06489478 0.1773978 -0.29175133
-0.053389806 -0.22667083 0.026345989 -0.09727769 -0.1672448 -0.4705815 -0.32929105 0.24005686
-0.3272788 -0.42241836 0.068597905 0.24079794 -0.23451617 -0.31343034 -0.17326896 0.1885111
-0.04065198 -0.22155574 -0.346559 -0.2257432 -0.6443197 -0.28812322 -0.37713265 -0.18787786
-0.011089307 0.12690417 -0.30620962 -0.2522645 -0.3030444 -0.12367695 0.17466351 0.41465223
0.059615854 -0.42311224 -0.5753467 -0.14126264 -0.46161836 -0.3786896 -0.27582636 -0.34882626
-0.022038598 -0.62141854 -0.094188444 -0.5639071 -0.43392065 -0.101982765 -0.07778591 0.25895014
-0.43376002 -0.11910094 -0.30500206 -0.3687979 -0.08752138 0.24943097 -0.39643362 0.17728513
-0.13502623 -0.4772596 -0.3353438 -0.40388888 -0.20744208 -0.21791428 -0.14025731 -0.1722086
-0.27978134 -0.19949691 0.25537986 -0.18087511 -0.15025273 -0.20290467 0.59256035 -0.18781377
-0.2204526 -0.2108715 -0.1677745 -0.06788883 -0.3549496 -0.09179168 0.2895105 0.07976664
-0.35328758 -0.2190699 -0.060991555 -0.19080535 -0.3901266 -0.53946066 -0.26260224 0.0788779
-0.44478923 -0.287217 0.066143185 -0.18620864 0.2000671 -0.075262465 -0.41475627 -0.20643134
-0.41892946 -0.37084475 -0.33709928 0.16773288 0.017329205 -0.120649084 -0.48804936 -0.20446976

fc2.weight f4 [128, 256]
00000000: cc8e 533e f2e2 ebbe 3f3a aabe 2367 0ebe
00000010: fd44 ffbd 4fdc 9c3d d196 b1be 42ae 66be
00000020: 0b08 c6be cbb2 13bf d3cf 303c 7ae9 a5be
00000030: 3575 f8bd 047b 2abd ca6e 81be a8d0 cdbd
00000040: a544 a3be 3eb5 cdbe f2e7 fdbc 5575 e1be
00000050: 7235 043e 5d07 f53b 0aa6 c7be 70c3 d93c
00000060: adbb 23be ee0c 6ebd eac8 23be 5689 fcbe
00000070: ab8d 86be 0ef3 57be 09ac 07be 21a9 72be
00000080: 88b4 99be 123e edbc 62c9 1e3e 1218 3c3d
00000090: c83c 77be 839b 8ebe ac45 043d 05e9 4bbe
000000a0: 8939 7b3e a858 893e 6151 223e 7891 843c
000000b0: 3bb1 8bbe 4ca4 2bbe 15b0 30bd 2681 e1be
000000c0: 6a93 d73d 2f16 aabd e2c6 93be b7c8 fe3c
000000d0: 4042 02bd c795 babd ae69 a53d 642e 89be
000000e0: 689d 543e cf89 353d 8a4b a3bc dcbe e2bc
000000f0: f99a b5be 4dad 0a3e a9f6 943c c7a2 81be
00000100: fb08 ddbd 54fc 523e 64fa 0ebd 6ff6 5abd
00000110: 8907 f2be 1653 1cbe 5f9d 2fbb 7e33 503a
00000120: 5410 77bd 6dc9 fa3d 851f d3bd 1d26 823d
00000130: 8184 173e 18fa cebe 0f35 dbbd 5aa1 d9be
00000140: f61c 03bf c15f dcbe 326f fd3c 9e68 7abc
00000150: 66c0 2bbe cc65 f5be e302 163e 7676 ce3c
00000160: 364e 66bd c2da 833e 2c14 0dbe d094 b23c
00000170: 251e 693e 5f19 03be c4cd a6bd 74fa 95bd
00000180: e755 1b3b bdc9 3ebe 630a 3f3e c02d 88bd
00000190: 63d5 12be 44a6 ff3e 9011 d4be 02d7 a93d
000001a0: 0d9a c33d d19e 3cbe 9aa9 6fbe d4b9 60be
000001b0: c122 e4be c001 a13d 160a 86be 7131 a8bd
000001c0: 93ca 62be dabb 9fbd 0186 34bd 6f11 043e
000001d0: 65ed a63e 1999 073d 292c 18bd 8337 11bf
000001e0: 2526 15be d5d1 c0bd 393a d1be b438 a1be
000001f0: c800 253e 5144 32bf d2c3 4b3e c9aa f73d
00000200: 2617 ddbe 6129 0fbe a0e0 293e aa24 91be
00000210: a58a 1abf c363 173e 97a2 b23d 0df2 08be
00000220: f695 c0be 18e2 113e 32aa 78bd 4c01 6fbe
00000230: 0769 b53d 8d3c 42be ca59 97be c319 cdbe
00000240: 159a bd3e d959 97be 090e 4a3e 7aca 913a
00000250: b772 5d3c 145b 923e e112 ae3c 077e b0be
00000260: dcaa 8fbe dcd1 e7be 00d5 a33c 91c5 e93d
00000270: d7d3 1d3e 472e a93d fb2b 3c3e 3f21 be3e
00000280: 4ac8 25bd b957 f53b d6dd 3e3e 395d 70bd
00000290: 4bae 9f3e 4471 b8be d383 bfbd e3e3 3c3d
000002a0: d012 0abe 4ebf 023e 1eaf 8dbd a51d 43bd
000002b0: 521a b3bd 264e 693e 71df 5abe 6fa2 aebe
000002c0: f4ff 03bf 7a94 e63d c6ca c83e 48aa f1be
000002d0: c41f 0c3e f713 88be 0982 21be 838b 1dbf
000002e0: c63e dabd ebdb 5b3e 3941 a7be 0e45 75be
000002f0: 7f42 a33e 7320 763e 1d1d 1bbd be9d cfbe
00000300: 640f eb3c e422 a83e eeea 663e c8c3 67be
00000310: d334 0fbe f601 e73e 8902 48be f192 e03d
00000320: c837 a93e 5cf5 04be bc74 bc3a 1321 50be
00000330: 4ed5 633d e120 6b3d ecca c63c 74f3 aebe
00000340: 2a31 79be a923 d3bd 2c3b cc3c ea5b 803e
00000350: dc78 8abd af65 223e e260 8abe b761 8dbe
00000360: fd91 923e 4aff 00bd 3fff fbbe 4b61 063e
00000370: 855c 27be b985 7ebd 7532 cabe c227 01bf
00000380: d875 4dbe 6db2 11bf 89c7 5e3d 184c c9bd
00000390: f817 2cbe f13d a63d ffa9 0bbd 89d3 1a3d
000003a0: c2c6 353e ce48 3b3d dd07 ef3e 624a 9e3e
000003b0: 904a d1bc 6dee 10bf 46d0 18be c8e5 45bb
000003c0: b66b 8dbe 43f6 b6be 28e8 49bd aa8f d6bd
000003d0: 9fef 33be c3c0 7e3e 22ed f83d 9b3b 6ebd
000003e0: 071a 6cbe 62eb fbbd 72d7 e33c 9e2a fdbe
000003f0: 9c18 e93c 36c6 cebd 5161 cdbe 8146 72be
0.20659941 -0.46071583 -0.33247563 -0.13906531 -0.1246433 0.07659208 -0.34685376 -0.22527412
-0.3867801 -0.5769469 0.010791737 -0.3240469 -0.121317305 -0.041621223 -0.25279838 -0.10049564
-0.3188831 -0.4017734 -0.03099439 -0.4403483 0.12911013 0.0074776844 -0.38993865 0.02658245
-0.15989561 -0.0581178 -0.15994611 -0.4932353 -0.2627996 -0.21088812 -0.1324922 -0.2369733
-0.30020547 -0.028960261 0.15506509 0.045921393 -0.2414428 -0.2785302 0.032293007 -0.19913109
0.24533667 0.26825452 0.15851356 0.016182646 -0.27283654 -0.16761893 -0.043136675 -0.44043845
0.10526164 -0.083050124 -0.28862673 0.031101568 -0.031801462 -0.09110599 0.080767974 -0.26793206
0.2076317 0.044320878 -0.01993348 -0.0276789 -0.35469797 0.13542672 0.018184023 -0.25319502
-0.107927285 0.20604068 -0.03490676 -0.053457674 -0.47271374 -0.1526607 -0.0026796681 0.0007942243
-0.060318306 0.1224545 -0.10308746 0.06354926 0.1479664 -0.4042518 -0.107034795 -0.42505914
-0.51216066 -0.43041804 0.030936811 -0.015283732 -0.16772613 -0.47929227 0.14649539 0.025202971
-0.05622693 0.25752836 -0.13777226 0.021799475 0.22765405 -0.12802647 -0.081447154 -0.07323161
0.0023702325 -0.18631645 0.18656306 -0.06649351 -0.14339213 0.49931538 -0.4141965 0.082929626
0.09550867 -0.18419959 -0.23404542 -0.21945888 -0.44557765 0.07861662 -0.2617957 -0.08212555
-0.22147588 -0.07799502 -0.04407311 0.12897275 0.32602993 0.03310499 -0.03715149 -0.5672533
-0.14565332 -0.09415022 -0.40864733 -0.31488574 0.1611358 -0.6963549 0.19898918 0.120931216
-0.43181723 -0.13980629 0.16589594 -0.28348285 -0.60367805 0.1478415 0.08722418 -0.13373585
-0.3761441 0.14246404 -0.060709186 -0.23340338 0.08857923 -0.18968411 -0.2956069 -0.40058717
0.37031618 -0.29560736 0.19731916 0.0011122965 0.01351612 0.28585112 0.021249237 -0.3447115
-0.28060043 -0.45277297 0.019999027 0.11414636 0.15412842 0.0826078 0.18376152 0.3713474
-0.040474214 0.007487264 0.18639311 -0.058682654 0.31187662 -0.36023915 -0.09351315 0.046115767
-0.13483739 0.1276829 -0.069181666 -0.047635693 -0.087452546 0.22783718 -0.21374299 -0.34108302
-0.5156243 0.112587884 0.39217204 -0.47200227 0.13683993 -0.26577732 -0.1577226 -0.61541003
-0.10656504 0.21470611 -0.32666948 -0.23952124 0.3188667 0.24035816 -0.03786956 -0.40550035
0.028693862 0.3283912 0.22550556 -0.22633278 -0.13984995 0.45118684 -0.19532217 0.10965527
0.3305037 -0.12984222 0.0014378051 -0.20325117 0.055623345 0.057404403 0.024266683 -0.34170115
-0.24335161 -0.10309536 0.02493056 0.25070125 -0.06761333 0.15859102 -0.2702704 -0.27613613
0.28627005 -0.031493463 -0.49218175 0.13123052 -0.16343887 -0.062139247 -0.3949162 -0.5045129
-0.20064485 -0.5691288 0.05438951 -0.09828967 -0.16806018 0.08117283 -0.034097668 0.037799392
0.17751601 0.04572373 0.46685687 0.30916125 -0.02554825 -0.5661381 -0.149232 -0.0030196775
-0.2762124 -0.35734758 -0.049293667 -0.104766205 -0.17571877 0.2487822 0.121546045 -0.058162313
-0.23056804 -0.12300755 0.027812693 -0.49446577 0.028454117 -0.100963995 -0.4011331 -0.23659708

fc2.bias f4 [128]
00000000: 01e2 d83d a4b7 2a3d 66a7 b0bd c958 0bbd
00000010: 323d 0abe 8b32 47be ef0c 9bbe fd61 92be
00000020: 4b4c 9b3d 237a 1ebe b552 2ebe aeb4 4e3c
00000030: e80b 04be ee76 f2bd 5eba 6bbe a118 863c
00000040: bf00 56be 2a35 5cbd 2517 46be bdd0 83bd
00000050: 2556 8fbe dec0 043e 7d42 dabe ba52 453e
00000060: fced cc3c 1b72 a1be 5a72 14be 91d5 81be
00000070: add1 813d 795e bebd f2dd 82bd 5fa1 063e
00000080: c80b 7e3c f7ca b6be 34af d4be 4ab1 d9be
00000090: e7d8 453e d969 d4bd a74c 60be 7146 b1bd
000000a0: 4b4f afbe b56d 26bd 39c5 7cbc c4ac 9d3e
000000b0: 5a7b c3bc d5c2 60be 6802 133d 178c babe
000000c0: 0417 98bd ce9b c6bd c195 26be 0b65 04be
000000d0: a75c b0be 4739 81bc bc5e 06be aaed 8f3d
000000e0: 2778 68be 9cb8 0cbd f583 8cbe 0dcc a0bd
000000f0: 2b99 10be 7139 51be cf1f 473e d438 6dbe
00000100: a196 51be dae3 ccbd 4f2a 34bd 6985 84be
00000110: 4330 84be 5efd 0e3e 3de7 03bf e2ff d9be
00000120: 302c 54be e434 2fbe 8aa0 40be 03a9 76bd
00000130: 7863 143d fc0c a0bd 5d5e c1bd 559c 903c
00000140: 4f23 b0bd 627f 2cbe d8d0 a8be 28b0 0bbe
00000150: f841 373d fe79 d7bd bfc9 90bd d4d3 a3be
00000160: 692a b9bd 48e8 c6bd 229e 38bd e9f6 703e
00000170: 91b1 5abe 8619 e7bd d6c3 75be 9e3a 29be
00000180: db3e 2ebe b406 5bbe fdd0 d03d d31d 1dbe
00000190: f7fb 93be a79a e4be 29b9 163b e189 00be
000001a0: 0440 f4be 5cec a4bd d52f a6be 9511 abbd
000001b0: a025 0fbb 3d42 4abd 6263 4cbd dbee 4bbe
000001c0: 4f28 28be e998 8ebd 7b79 92be a988 94be
000001d0: f3fd 743d a207 1abe 52fe 2dbe 404d 2fbe
000001e0: 16a9 17bd 143d d8bc 31ce 92bd 17a8 a7be
000001f0: 1282 acbd 4baa 80be 4462 093d 71db afbd
0.10589982 0.04167904 -0.08625679 -0.03402022 -0.13499907 -0.19452874 -0.30283305 -0.28590384
0.07582911 -0.15476279 -0.17023738 0.01261632 -0.12895167 -0.1183909 -0.23020312 0.016369166
-0.20898722 -0.05376164 -0.19344766 -0.06436298 -0.2799541 0.12964198 -0.42628852 0.19269839
0.025015824 -0.31532368 -0.14496747 -0.2535825 0.063388206 -0.09295363 -0.06389989 0.13147496
0.015505739 -0.35701725 -0.4153992 -0.42518073 0.19321023 -0.10371751 -0.2190424 -0.08656014
-0.34240183 -0.04063197 -0.015427881 0.30795872 -0.02386253 -0.21949323 0.035890967 -0.36435005
-0.07426265 -0.09697686 -0.16268064 -0.1292917 -0.34445688 -0.015774382 -0.13122076 0.07027753
-0.22702084 -0.034355745 -0.27444425 -0.078514196 -0.14120929 -0.20432068 0.19445728 -0.2316621
-0.20467617 -0.10004397 -0.04398566 -0.25883034 -0.2581807 0.1396384 -0.51524717 -0.42578036
-0.20719981 -0.1711002 -0.18811241 -0.060219776 0.036227673 -0.078149766 -0.094418265 0.01765267
-0.086004846 -0.16845468 -0.32971835 -0.13641417 0.044740647 -0.10521315 -0.0706973 -0.3199755
-0.09041292 -0.09712273 -0.045072682 0.23531689 -0.21356799 -0.11284165 -0.24000487 -0.16526267
-0.17016165 -0.21389276 0.10196111 -0.15343408 -0.2890317 -0.4464924 0.0022998548 -0.12552597
-0.4770509 -0.080528945 -0.32458368 -0.08352963 -0.0021842495 -0.049379576 -0.049899466 -0.19915335
-0.16421627 -0.06962759 -0.28608307 -0.29010513 0.059812497 -0.15041974 -0.16991547 -0.17119312
-0.037026487 -0.026396312 -0.07168234 -0.3274543 -0.084232464 -0.25129923 0.03354098 -0.08586777

fc3.weight f4 [2, 128]
00000000: 7f6e a3bd 36e9 efbe a13f a9bb c399 4d3f
00000010: 5292 87bd 1021 3dbe c8b8 aebd 5c97 883d
00000020: f4f3 173f ad2e cdbd e435 433e 0a2a 0d3d
00000030: 980d a1bf 2fee ce3c 87c8 25bd 68fc 90bf
00000040: 3e9b a73d b9b4 0a3e 8e83 a03c 78e6 d9bb
00000050: 228b e2bd dd66 973e 1cc8 1fbe a8ac 483e
00000060: 3299 0f3e 8474 16be d442 88bc d176 29be
00000070: 4a06 183f 5f94 04bf 4f1c c53b e583 8b3e
00000080: 2941 c8bc d2c0 a4be 024d 8a3d 2dfc 85be
00000090: 79fb 6a3e 85b2 57be ae50 8fbc 9a47 943e
000000a0: 39d6 82bd 5421 df3e c22c 81bf 70ef d13d
000000b0: 0f5c aabc a80d 593d 545b 0abf 7a2b 97be
000000c0: 8d03 273e a372 70bd 5f1b 653d a25d 0fbd
000000d0: 93a3 693d c6b6 cf3c e9c4 7ebc 6264 c93d
000000e0: af62 d4be 5f8f 053c eb4c ddbe 7f19 94bc
000000f0: 927a 8abc 4f6a 4abb caeb c83e 69f9 2e3f
00000100: 7c87 aabe 32de cfbd 8475 df3d dd66 1e3f
00000110: 52ea 13bd e4e9 24bf 89f2 e8bd 77b2 893d
00000120: d3bc 6bbd c35f afbe d6c3 803d c896 633d
00000130: b051 313d 4e64 05bf 36a2 023f 7772 db3c
00000140: a9eb 67bd 8697 5dbe 49d0 8a3d f8b2 06bc
00000150: f177 9d3d 5812 093e 9203 9fbe 8020 63bd
00000160: 874d 43be 2acb e23b 5db1 303b 4aa9 2b3e
00000170: e9cf c33d 43c1 013e 692e fa3c 0095 ec3c
00000180: 7fe0 183e 2ed0 81be 8c1c 7c3e eb88 9dbd
00000190: a75b 463d e168 71be 453b 3bbd f9f4 48bd
000001a0: 996b 10be 22d5 473c 0f46 62be 3c8e 59bd
000001b0: 23b3 363f 271b 1a3e 7a63 50bd d85b c33b
000001c0: a523 363f 7e36 40be 81e2 b9bd 89e4 26bd
000001d0: 561d 1f3e 8002 173c 51bb b7bd a941 53bf
000001e0: 2e5a 2ebf b34a e43c 32cf b4bd bb44 3ebd
000001f0: 9851 053d 62be 413c e21c 693e d866 ab3e
00000200: 8bd9 b73e 9f51 f2be f419 e2bb 73f1 473e
00000210: 6d07 773d 9c0c b1bc 2fc5 90be 94b1 a2be
00000220: da10 073f a8de 443e fcd4 223e e03b 833e
00000230: 73ea 943d 3dc9 e73a df33 77be 6276 e8be
00000240: ffa1 a93d a96c a8bd cdc4 b43d 7fa5 a2bc
00000250: eb24 243d 2e38 83be 5275 d43d 19e9 a83c
00000260: 49bf 953d eff5 c5bd 271c cc3d 9a7f 8dbc
00000270: da87 513c 8051 debd bd81 dd3b 9ed8 1e3e
00000280: 74af 14bf 6fc2 ebbe 81a5 abbe fadf 113e
00000290: f867 6b3d 9ef9 423e e63b a739 49b8 c8be
000002a0: e5e9 943e f00b 6e3e f7b3 0d3e b1b4 69bd
000002b0: 215e d8be dab3 85be a07e c9be 3fa3 9ebd
000002c0: 712c b23e 5cf5 95be 8d1f 993c 8beb 93bc
000002d0: 3ab8 273f c5f1 9d3d 9864 ae3d af56 38be
000002e0: d05a 4bbe 3d5a aabc ccb8 a53e d8d1 edba
000002f0: febb 1d3f 7657 fd3b 0f29 ca3e 0f18 1a3e
00000300: b9bc a2bc 702f a6bc 710a 37bf 6ecd 023f
00000310: 4688 d0be 62b7 663e 5abc dcbe 5c81 19be
00000320: 8646 cdbd f644 8abd b825 e63e 6c52 f2be
00000330: 3e6d d5be d714 a1bc 72ff 6b3d 1887 aebe
00000340: ee4c 54be 6ee3 c73d 700c b13e b7aa c43b
00000350: 4735 a13d 37be 723e 6e4e 14be c73e 0e3f
00000360: 0738 e03d 537d 393b 546b 1abd 0798 2e3f
00000370: 43de a2be 97be 10be 746b 1b3f e58a 70be
00000380: 2a92 583e 4098 9fbe e0a9 493f ea2e d43e
00000390: d19e 793e 8097 abbe 1bfe acbe 82f6 83bb
000003a0: 3ee6 f5be 7a2e 30bb 8cf9 fd3c 2a1f ce3b
000003b0: be3e 193f 42f2 e83e 36ec f5be 499a 2bbf
000003c0: 1ed1 9e3e a508 a3bd e833 8abd c035 b3be
000003d0: 24ed 98bc db5a 023e 1c3f 193e b525 d8be
000003e0: 2a8e 2fbd a88e 96bc 87ca 4f3c f683 193f
000003f0: 2d28 25bd f9a3 1c3f 83cb bc3d 31f0 683e
-0.0798006 -0.46857613 -0.005165056 0.80312747 -0.06619705 -0.18469644 -0.08531338 0.066694945
0.5935662 -0.10018668 0.19063526 0.03446392 -1.2582273 0.02526006 -0.04047444 -1.1327028
0.08183907 0.13545503 0.01959398 -0.0066497885 -0.11061694 0.29570666 -0.1560368 0.19597113
0.14023283 -0.14692885 -0.016633429 -0.16549231 0.59384596 -0.51788896 0.0060153375 0.27249065
-0.024445133 -0.3217836 0.06752969 -0.26168957 0.22947492 -0.21064194 -0.017494526 0.28960878
-0.06388516 0.43580115 -1.0091784 0.10250747 -0.02079585 0.05299154 -0.54045606 -0.29525357
0.16309948 -0.058703076 0.055934306 -0.035001405 0.057040762 0.025355708 -0.015549877 0.098335996
-0.4148154 0.008151858 -0.43222746 -0.018078564 -0.01690415 -0.0030886119 0.39242393 0.6834932
-0.3330649 -0.10149802 0.10911086 0.61875707 -0.036112137 -0.6441939 -0.11374385 0.067234926
-0.057553124 -0.34252748 0.06287353 0.055563718 0.043290794 -0.5210618 0.51028764 0.02678798
-0.056621227 -0.21639833 0.067780085 -0.00822138 0.07688893 0.13385904 -0.3105741 -0.055450916
-0.19072543 0.0069211917 0.0026961186 0.16763797 0.0956114 0.1267138 0.030539708 0.028879642
0.14929388 -0.2535414 0.24620265 -0.07692131 0.04842725 -0.23575164 -0.04571082 -0.04906175
-0.14103545 0.012196811 -0.22097038 -0.05311416 0.7136709 0.1504942 -0.05087612 0.0059618764
0.7114814 -0.18770787 -0.09076405 -0.04074529 0.15538535 0.009216905 -0.08971275 -0.82522064
-0.68106353 0.02786765 -0.08828582 -0.046452265 0.032548517 0.011825176 0.22764924 0.334769
0.3590816 -0.47327897 -0.0069000665 0.195257 0.060309816 -0.021612458 -0.2827544 -0.31776106
0.5276009 0.19225562 0.1590156 0.25631618 0.0727128 0.0017683875 -0.24140881 -0.4540282
0.082828514 -0.0822385 0.08826599 -0.019854305 0.04007427 -0.256288 0.103739396 0.020618962
0.073118754 -0.09666049 0.09966307 -0.01727276 0.012788737 -0.10855389 0.006759851 0.1551232
-0.5808022 -0.4604678 -0.33524707 0.14245597 0.0574722 0.19040534 0.0003189735 -0.39203098
0.29084697 0.23246741 0.13838182 -0.057057086 -0.42259315 -0.26113778 -0.3935442 -0.077459805
0.3479953 -0.29288757 0.018691802 -0.018056652 0.6551548 0.077121295 0.085152805 -0.18001817
-0.19858861 -0.020794982 0.3236755 -0.0018144203 0.6161498 0.0077313734 0.3948445 0.1504824
-0.01986538 -0.020286292 -0.7150031 0.5109471 -0.40728968 0.22530892 -0.4311245 -0.14990753
-0.10023217 -0.067514345 0.44950652 -0.47328508 -0.41684908 -0.019663258 0.05761666 -0.34087443
-0.20732471 0.09760176 0.34579802 0.006001796 0.0787149 0.23705374 -0.14483044 0.5556454
0.10948186 0.0028303459 -0.037700012 0.68200725 -0.31810197 -0.14135204 0.60710835 -0.23490484
0.21149507 -0.31170845 0.78774834 0.41442043 0.2437699 -0.33514023 -0.33787617 -0.0040271888
-0.48027223 -0.002688317 0.031002782 0.006290336 0.5986136 0.45497328 -0.48031777 -0.67032295
0.3101892 -0.07960633 -0.067481816 -0.35001945 -0.018667765 0.12729971 0.1496548 -0.42216268
-0.042860188 -0.01837857 0.012682564 0.5996698 -0.040321518 0.611877 0.09218504 0.22747876

fc3.bias f4 [2]
00000000: 346e dbbc 7c88 24bd
-0.026785947 -0.040169224
