checkpoint_1_actor.pth (torch_old, 159260 bytes, 6 tensors)

fc1.weight f4 [256, 24]
-0.2049749 -0.23613606 -0.01007761 -0.03883448 -0.15001176 0.23409095 -0.0055329716 0.038174603
-0.2134951 -0.16920725 -0.050070107 -0.071424305 0.11110969 -0.307847 0.0119854165 -0.018227547
-0.22244744 -0.19209544 -0.040520117 -0.14358665 0.30683225 -1.053423 0.024883954 -0.18875493
0.044209357 0.34954658 -0.0051188497 0.088339426 -0.31784415 -0.28389198 0.0033984182 -0.004416754
-0.09211916 0.10354022 -0.038151592 0.005156551 -0.020429388 0.20209712 -0.0855717 0.01521756
0.02726586 0.21545236 -0.23813802 0.2844438 0.19772178 0.34692994 -0.19292438 0.2461286
0.10552611 0.53569806 -0.09581062 -0.08570833 -0.11120057 -0.3882473 -0.17857493 -0.13966703
0.19510454 0.51626176 -0.049453 -0.107414626 -0.054744758 -0.6718415 -0.030268895 -0.087578736
0.19663155 0.47554487 -0.0956352 -0.25335336 -0.032481037 -1.0181304 -0.049255203 -0.1782285
0.27018127 -0.263447 0.07437736 -0.037477817 0.1373343 -0.13735712 0.09819745 -0.04443853
0.27276722 -0.2594043 0.006056438 -0.100720026 0.43466705 -0.1037404 0.04450467 -0.028872488
0.39212975 -0.15134282 0.05907111 0.19849852 0.42068517 0.050417237 0.15555225 0.22805557
0.24995135 0.4756483 0.020165075 0.0332483 -0.036733244 -0.07794249 -0.08557841 -0.03898693
0.33991516 0.5809475 0.042915545 -0.11460987 -0.07150968 -0.28147766 0.06489853 -0.047298677
0.44412804 0.6379707 -0.038898233 -0.037864476 -0.22539173 -0.5025027 -0.00025467307 0.030388998
-0.06326902 0.39431822 0.00046945934 -0.10519446 -0.73883075 0.1827106 0.07868321 -0.086965896
-0.0727921 0.4827717 -0.025087172 0.20566365 -0.011416611 0.12030728 0.04250759 0.23163834
-0.06957179 0.31586686 -0.020033836 -0.06345929 0.9335174 0.17927913 -0.011791975 -0.08965487
0.21502502 -0.23405482 -0.009719124 -0.037536982 0.24822852 -0.7734146 0.017727682 0.052001264
0.3240256 -0.23075002 -0.022975303 0.05092156 0.030341862 -0.7410412 -0.044218913 0.059157804
0.23796059 -0.20536725 -0.08768416 0.19049025 -0.024852423 -0.7239069 -0.08973744 0.22125548
-0.0034105955 0.7181575 -0.13638139 0.37004355 -0.07839376 -0.042347398 -0.10846962 0.324231
0.04936849 0.8787822 -0.036007557 -0.1001208 -0.13458799 -0.5095934 -0.022596337 -0.09261367
0.1695801 0.97319824 0.0031631016 0.122040614 -0.112615585 -1.2629879 0.07971035 0.102552876
0.101413235 0.28270534 -0.03772071 0.43331948 -0.032722898 -0.5412307 -0.035266742 0.40795565
0.21808085 0.2948015 -0.0076360605 -0.19772002 -0.04764285 -0.33547115 0.012578035 -0.17297676
0.27185845 0.06006006 -0.07981401 -0.49913147 -0.059160028 0.12876315 -0.15749647 -0.56540626
-0.043142673 0.057454675 -0.0049379943 -0.124985315 -0.31582832 -0.1685759 -0.01311268 -0.10739524
-0.07862202 0.032870322 0.08936563 -0.0017053764 -0.118819885 -0.5860368 0.04409687 -0.072003745
-0.014593081 0.07175357 -0.07757908 0.18608019 0.016059987 -1.3141613 0.0193748 0.1599575
0.05801409 -0.65888107 0.0050280234 0.05173134 -0.69852585 0.23942186 -0.037350103 0.10750171
0.11502894 -0.7043742 -0.0065605273 -0.18178175 -0.13915452 0.40883994 -0.047924783 -0.16029806
00000000: f1e4 51be a7cd 71be 8f1c 25bc e710 1fbd
00000010: af9c 19be 8ab5 6f3e ee4d b5bb f95c 1c3d
00000020: 769e 5abe aa44 2dbe 5016 4dbd e846 92bd
00000030: 7a8d e33d 1f9e 9dbe 7b5e 443c f051 95bc
00000040: 43c9 63be abb4 44be 6cf8 25bd 6108 13be
00000050: 1e19 9d3e 91d6 86bf 6fd9 cb3c f948 41be
00000060: df14 353d c5f7 b23e 06bc a7bb 4deb b43d
00000070: 78bc a2be 4a5a 91be ffb7 5e3b 6bba 90bb
00000080: f8a8 bcbd e50c d43d d844 1cbd 49f8 a83b
00000090: 885b a7bc 8cf2 4e3e 3740 afbd 1353 793c
000000a0: a75c df3c 8b9f 5c3e 74da 73be 9ea2 913e
000000b0: 9477 4a3e cda0 b13e f88d 45be 2309 7c3e
000000c0: 131e d83d 8223 093f 5c38 c4bd d987 afbd
000000d0: 20bd e3bd 5ac8 c6be 59dc 36be e004 0fbe
000000e0: 7cc9 473e bb29 043f 3b8f 4abd 33fc dbbd
000000f0: 0a3c 60bd cefd 2bbf 79f6 f7bc 7b5c b3bd
00000100: c859 493e 9e7a f33e 63dc c3bd 88b7 81be
00000110: d60a 05bd 1952 82bf d3bf 49bd 8881 36be
00000120: 3355 8a3e 86e2 86be 2853 983d 5782 19bd
00000130: 5da1 0c3e 58a7 0cbe bf1b c93d 2d05 36bd
00000140: 25a8 8b3e a4d0 84be 1675 c63b 4d46 cebd
00000150: ae8c de3e d975 d4bd 874a 363d ff85 ecbc
00000160: 3bc5 c83e 9df9 1abe 8cf4 713d 3243 4b3e
00000170: 0c64 d73e 4e82 4e3d 1749 1f3e 6687 693e
00000180: 3ff3 7f3e 2d88 f33e 3a31 a53c 5f2f 083d
00000190: 9975 16bd 50a0 9fbd bc43 afbd c2b0 1fbd
000001a0: 5c09 ae3e fab8 143f 36c8 2f3d 94b8 eabd
000001b0: ab73 92bd d71d 90be 85e9 843d 42bc 41bd
000001c0: c064 e33e 0c52 233f c153 1fbd c817 1bbd
000001d0: 17cd 66be 04a4 00bf a485 85b9 59f2 f83c
000001e0: 3093 81bd 14e4 c93e c421 f639 3170 d7bd
000001f0: 0324 3dbf 7d18 3b3e aa24 a13d 2d1b b2bd
00000200: 0614 95bd da2d f73e 9d83 cdbc 7e99 523e
00000210: bd0c 3bbc aa63 f63d 701c 2e3d 9a32 6d3e
00000220: a87b 8ebd 4db9 a13e 001e a4bc f2f6 81bd
00000230: fffa 6e3f f394 373e 2133 41bc f99c b7bd
00000240: 852f 5c3e 11ac 6fbe f63c 1fbc 61c0 19bd
00000250: 9e2f 7e3e 80fe 45bf a539 913c 47ff 543d
00000260: afe6 a53e bc49 6cbe b436 bcbc 2093 503d
00000270: 7f8f f83c e0b4 3dbf e41e 35bd 744f 723d
00000280: f1ab 733e cb4b 52be c193 b3bd e00f 433e
00000290: 4f97 cbbc f651 39bf 43c8 b7bd cc90 623e
000002a0: 4c84 5fbb 2bd9 373f 90a7 0bbe 5976 bd3e
000002b0: e88c a0bd 7774 2dbd 5225 debd 9b01 a63e
000002c0: 9d36 4a3d dff7 603f a97c 13bd 220c cdbd
000002d0: 6fd1 09be b774 02bf f41b b9bc 3cac bdbd
000002e0: 68a6 2d3e 8523 793f 0a4c 4f3b 6ef0 f93d
000002f0: 00a3 e6bd 96a9 a1bf 2e3f a33d 3e07 d23d
00000300: beb1 cf3d c1be 903e 0881 1abd 0ddc dd3e
00000310: 7208 06bd 188e 0abf dc73 10bd 90df d03e
00000320: 9650 5f3e 39f0 963e eb37 fabb 1e77 4abe
00000330: 2625 43bd e0c2 abbe 1a14 4e3c d220 31be
00000340: 0831 8b3e 8a01 763d 8775 a3bd 298e ffbe
00000350: c951 72bd 7dda 033e c146 21be 77be 10bf
00000360: 5fb6 30bd 9855 6b3d e6ce a1bb 4df8 ffbd
00000370: 40b4 a1be 299f 2cbe 91d6 56bc 09f2 dbbd
00000380: 9504 a1bd 08a3 063d 5405 b73d f086 dfba
00000390: d757 f3bd 8206 16bf eb9e 343d b376 93bd
000003a0: d117 6fbc 89f3 923d c8e1 9ebd ce8b 3e3e
000003b0: 3c90 833c 7036 a8bf e7b7 9e3c e6cb 233e
000003c0: 2fa0 6d3d 6eac 28bf 1ec2 a43b 3ee4 533d
000003d0: 97d2 32bf 012b 753e 6cfc 18bd db29 dc3d
000003e0: 4b94 eb3d de51 34bf b1f9 d6bb ff24 3abe
000003f0: 867e 0ebe 7853 d13e c74c 44bd 2d25 24be

fc1.bias f4 [256]
0.03813969 -0.20982169 0.08066654 -0.20982127 -0.13930646 -0.11568833 -0.5451491 0.0011085714
-0.35682392 -0.24127834 0.0051417057 -0.05236433 -0.2092421 -0.5421266 0.07880922 0.2279406
-0.01747487 -0.2026132 -0.22216238 0.20578289 -0.18869032 -0.3567489 -0.17213036 -0.41850138
0.106698 -0.39432654 -0.16043048 -0.19811927 -0.23869126 -0.3470075 -0.45473254 -0.103360765
-0.22589803 -0.11358626 -0.51702285 0.0020148852 -0.2071849 -0.17592445 -0.2893756 0.12552203
-0.433811 -0.6233792 -0.16227522 0.008452186 -0.42039448 -0.22129272 -0.4160763 -0.25342396
0.16493136 0.3624128 -0.21161674 -0.15817173 -0.16887319 -0.25415316 -0.17845276 -0.33293286
0.0089154765 -0.5184813 -0.4944785 -0.016867058 -0.17910686 0.08224669 -0.23018274 -0.40961462
-0.09768057 -0.29039067 -0.06285362 0.24604812 -0.39608237 -0.15342012 -0.39743584 -0.15532352
-0.3774523 -0.28836334 -0.3096484 -0.19227614 -0.20988373 0.25413534 -0.021700446 0.23700361
0.06204831 -0.33764526 -0.37328202 -0.440168 -0.2282922 -0.44752812 -0.27991605 0.048563674
-0.4434602 -0.18353695 -0.22259906 -0.13243037 -0.35111457 -0.07364053 -0.24416436 -0.391556
-0.25518683 -0.16047232 -0.058854513 -0.19100825 0.14883511 0.09054598 -0.23120995 -0.317314
-0.42456442 -0.16434613 -0.3345266 -0.14784099 -0.16606821 0.081282064 -0.28052408 -0.5229651
-0.27178484 -0.54726166 -0.092751674 0.26330125 0.15582147 -0.47451183 -0.11817085 0.1725668
0.28447673 -0.11770052 -0.14909878 -0.06535801 0.01979621 -0.010538607 -0.3708756 0.050508652
-0.09990187 -0.007312049 -0.30366537 -0.09576634 -0.16008781 0.08425265 -0.34377205 0.0641774
-0.1761642 0.053290688 0.11542232 -0.19993122 0.16455 -0.2653537 0.1720589 0.09719843
-0.08442341 -0.34006217 -0.09698377 0.066514105 -0.28307605 -0.15311696 0.06749127 -0.06252981
0.0560628 -0.32699832 -0.19320537 -0.20848566 0.49340844 0.24553783 -0.4227649 -0.08390324
-0.42523107 -0.09476395 0.124000385 0.025240997 -0.14658758 0.0029806755 -0.16761549 -0.041336216
-0.22579496 -0.035308674 -0.19286968 -0.42572016 -0.07204425 -0.4418067 -0.25666466 -0.20232058
-0.00016676573 -0.089468725 -0.30646303 0.20181292 -0.22913794 -0.18534619 0.08916516 -0.1896454
-0.27145776 -0.33809456 0.10668994 -0.15392603 -0.2787066 0.08244927 -0.09751666 0.22894716
0.013657371 -0.10590378 0.100097924 -0.24688415 -0.39634022 0.24907473 0.15820338 0.02030189
0.29608494 -0.16274929 0.13440812 -0.3272813 -0.028291265 0.06725524 -0.29344225 0.2760837
-0.28981557 -0.30512956 -0.21790834 -0.44853437 0.013447757 -0.16183536 -0.27906263 -0.156021
-0.08199993 0.06504361 -0.30917814 -0.33243412 -0.21052885 -0.25998148 -0.083916254 -0.1355049
-0.14432646 -0.43837678 0.061428998 -0.45322084 -0.022369102 -0.06129885 0.03010436 0.070950285
-0.118066736 -0.3756081 0.03176024 -0.31869933 -0.20572798 0.14727485 -0.039334323 0.2454557
-0.3896907 -0.34869704 0.17403896 -0.18721732 -0.073410645 -0.2364453 0.15815711 -0.5631991
-0.120725274 -0.28171334 -0.31308404 -0.15686029 0.015274142 0.07386802 -0.5770034 0.45680776
00000000: 5d38 1c3d 7fdb 56be 8034 a53d 63db 56be
00000010: 5aa6 0ebe 01ee ecbd e48e 0bbf 7c4d 913a
00000020: a0b1 b6be ab11 77be c17b a83b fb7b 56bd
00000030: 9043 56be cfc8 0abf ba66 a13d 4369 693e
00000040: 7527 8fbc d679 4fbe 897e 63be c0b8 523e
00000050: 0938 41be cba7 b6be f142 30be d045 d6be
00000060: 7b84 da3d 2be5 c9be e347 24be c7df 4abe
00000070: 7b6b 74be f8aa b1be b4d2 e8be cfae d3bd
00000080: d051 67be ea9f e8bd 9c5b 04bf 2a0c 043b
00000090: 4728 54be 8a25 34be 0a29 94be d988 003e
000000a0: 7a1c debe c795 1fbf 7a2b 26be 0a7b 0a3c
000000b0: f23d d7be 8f9a 62be f407 d5be c9c0 81be
000000c0: c4e3 283e 2c8e b93e 0fb2 58be c5f7 21be
000000d0: 18ed 2cbe 5d20 82be 52bc 36be 2d76 aabe
000000e0: 3812 123c 31bb 04bf 492c fdbe c92c 8abc
000000f0: ca67 37be f470 a83d 06b5 6bbe 02b9 d1be
00000100: c00c c8bd 16ae 94be 66b9 80bd 0af4 7b3e
00000110: 4fcb cabe 2a1a 1dbe b67c cbbe 210d 1fbe
00000120: 6e41 c1be 5ca4 93be 3c8a 9ebe 09e4 44be
00000130: c3eb 56be 071e 823e 22c5 b1bc 13b1 723e
00000140: 5e26 7e3d d7df acbe d21e bfbe b35d e1be
00000150: 6ec5 69be 6822 e5be 2851 8fbe b4ea 463d
00000160: 370d e3be 1cf1 3bbe 02f1 63be d49b 07be
00000170: 4ac5 b3be d9d0 96bd 3906 7abe 077a c8be
00000180: d9a7 82be db52 24be 6e11 71bd ab97 43be
00000190: 3b68 183e 2c70 b93d 4dc2 6cbe fb76 a2be
000001a0: 8260 d9be 5a4a 28be 1247 abbe a163 17be
000001b0: c90d 2abe 3677 a63d daa0 8fbe 0ae1 05bf
000001c0: 6227 8bbe 5719 0cbf 97f4 bdbd 6ccf 863e
000001d0: aa8f 1f3e 37f3 f2be 8f03 f2bd 5ab5 303e
000001e0: efa6 913e f80c f1bd 5aad 18be 6cda 85bd
000001f0: a92b a23c 1faa 2cbc 68e3 bdbe 29e2 4e3d
00000200: 5a99 ccbd ea99 efbb 077a 9bbe 2521 c4bd
00000210: 0fee 23be a78c ac3d e402 b0be 716f 833d
00000220: 6364 34be 5647 5a3d 8a62 ec3d c5ba 4cbe
00000230: cc7f 283e 71dc 87be 3530 303e f80f c73d
00000240: 2ee6 acbd a11c aebe 6d9f c6bd 8c38 883d
00000250: 58ef 90be b1ca 1cbe dd38 8a3d a10f 80bd
00000260: 1ba2 653d 536c a7be a1d7 45be 447d 55be
00000270: 08a0 fc3e 456e 7b3e a474 d8be 76d5 abbd
00000280: e3b7 d9be 9a13 c2bd eaf3 fd3d 35c6 ce3c
00000290: 0e1b 16be 7057 433b 65a3 2bbe 2a50 29bd
000002a0: cb36 67be d49f 10bd a17f 45be fef7 d9be
000002b0: f08b 93bd 7d34 e2be 8d69 83be 202d 4fbe
000002c0: d6dd 2eb9 613b b7bd b9e8 9cbe 0ca8 4e3e
000002d0: 23a3 6abe 64cb 3dbe 399c b63d 6732 42be
000002e0: 83fc 8abe bb1a adbe 4180 da3d c99e 1dbe
000002f0: a2b2 8ebe 2adb a83d d1b6 c7bd 2071 6a3e
00000300: 2ac3 5f3c 15e4 d8bd 2400 cd3d 33cf 7cbe
00000310: 1bed cabe 720d 7f3e 1100 223e 2650 a63c
00000320: 7298 973e c0a7 26be 48a2 093e 6a91 a7be
00000330: 15c3 e7bc 1ebd 893d 103e 96be d85a 8d3e
00000340: b562 94be f139 9cbe 5d23 5fbe 4ca6 e5be
00000350: fb53 5c3c 2bb8 25be 4ce1 8ebe f8c3 1fbe
00000360: 94ef a7bd 9635 853d 994c 9ebe ce34 aabe
00000370: e094 57be 4b1c 85be 49dc abbd ccc1 0abe
00000380: 51ca 13be ec72 e0be f99c 7b3d 900c e8be
00000390: 683f b7bc 8114 7bbd 6b9d f63c 624e 913d
000003a0: f9cc f1bd b44f c0be 0717 023d 8f2c a3be
000003b0: 5baa 52be 38cf 163e 071d 21bd bd58 7b3e
000003c0: 8a85 c7be 6b88 b2be 4537 323e e6b5 3fbe
000003d0: 5258 96bd b71e 72be f0f3 213e d12d 10bf
000003e0: d03e f7bd bb3c 90be 8d4c a0be fc9f 20be
000003f0: 6540 7a3c 1e48 973d 7fb6 13bf b5e2 e93e

fc2.weight f4 [128, 256]
0.05462182 -0.2537544 -0.18526673 -0.37715793 0.02531328 -0.14496946 -0.061687164 -0.20191264
-0.021036953 -0.14467211 -0.25819165 -0.1029637 0.02223661 -0.016587801 -0.1774009 0.22205266
0.17108874 0.021326737 0.10681318 -0.3449559 -0.015465588 0.020239534 -0.046234958 0.035592664
0.10610727 -0.34672558 0.12841368 -0.19651896 -0.26454267 0.05423965 -0.033752345 -0.019053277
-0.05971601 0.09343874 0.09930246 -0.26612017 0.09153436 -0.073122226 -0.16371912 -0.2298269
-0.20859478 -0.03157317 -0.0078403 -0.28091437 -0.05676531 -0.05144434 -0.6182788 -0.21096307
0.19874577 -0.31513035 -0.4412668 -0.069094576 -0.16041182 -0.18193518 -0.06664777 -0.34658736
-0.16428483 -0.13331194 -0.107184075 0.015883898 -0.215446 0.20249812 -0.05334129 0.11112594
-0.120649375 0.10907032 -0.394624 -0.04568257 -0.13579598 -0.0021283368 0.0876161 -0.28844473
-0.15129696 -0.089312494 -0.18623236 -0.03503739 -0.18129332 0.033453126 -0.07463942 -0.090224296
-0.23057514 -0.30507654 -0.074888065 -0.2758361 0.16937454 -0.0011382434 -0.3293569 -0.22183065
-0.047460236 -0.056217793 -0.15313457 -0.14577435 -0.23709539 -0.15138343 -0.24506003 -0.07811866
-0.03636577 -0.58195055 0.02863807 -0.5020577 0.020451758 0.011864345 0.056701515 -0.03460826
0.0021952358 -0.18195674 -0.22308233 -0.009420571 -0.05163206 -0.11483261 -0.54263073 -0.109083764
-0.10981871 0.009850441 -0.023098204 0.0398086 -0.014494515 -0.56271684 -0.39727867 0.046499074
-0.33023745 -0.1297879 -0.13700327 -0.1616233 -0.027986566 -0.11025568 -0.15275483 -0.3633445
-0.18164867 0.23930372 -0.18159698 -0.055722766 -0.23224083 -0.3630997 0.15831573 -0.3864415
-0.05845763 -0.049323622 -0.08337632 0.060724452 -0.45228738 -0.11207119 -0.2060854 0.055161975
-0.01309523 -0.23585366 0.052743904 -0.081854075 -0.1840702 -0.04926363 -0.52155745 -0.27816096
0.151677 -0.033125944 0.04316531 0.027109828 -0.3558124 -0.4626089 -0.26849398 0.13865063
0.0092620095 -0.24820201 -0.14123009 -0.12272968 0.02368972 -0.37001365 -0.13202323 0.27865958
-0.13663477 -0.03274448 -0.25842077 -0.041526143 -0.43800783 -0.36891586 -0.21981214 -0.04597484
0.091154635 -0.30439132 0.12431244 -0.096301444 0.24694659 -0.13276115 0.3487441 -0.022382092
-0.29722795 -0.23310888 0.07432304 -0.17463872 -0.016559321 -0.16525379 -0.21484025 -0.1420455
-0.12182806 -0.34118044 -0.29516065 -0.14918765 -0.27314794 -0.43209812 -0.17592272 0.2402594
0.015418099 -0.18374483 -0.120314 -0.040933363 -0.019526124 -0.26398203 0.021882275 -0.03357929
0.019890314 -0.100501634 -0.005612757 -0.195629 0.22958903 0.12383751 0.011529354 -0.17883867
0.08971167 0.06783884 -0.3886368 -0.25369805 -0.34804314 -0.093066946 -0.14192751 0.059902348
-0.18896012 0.10945941 0.017681707 -0.067308046 0.028102452 -0.6581334 0.052773174 0.21964124
-0.31446627 -0.121375956 -0.28715312 -0.0031258476 -0.07922701 -0.3395214 0.06481598 -0.07296617
-0.11008596 0.04647834 -0.4712402 -0.3252751 0.082938105 0.042712137 0.06955906 -0.24841082
0.010008609 -0.26224235 0.00076570624 -0.07360851 -0.28071448 -0.012508736 -0.046425167 -0.24117748
00000000: 21bb 5f3d 19ec 81be 90b6 3dbe d81a c1be
00000010: cc5d cf3c e072 14be aeab 7cbd 30c2 4ebe
00000020: b055 acbc ed24 14be b231 84be a2de d2bd
00000030: 8d29 b63c 24e3 87bc 95a8 35be c661 633e
00000040: e331 2f3e 69b5 ae3c dec0 da3d 0f9e b0be
00000050: 6163 7dbc 61cd a53c de60 3dbd 9dc9 113d
00000060: c54e d93d 0486 b1be e07e 033e 443c 49be
00000070: 2372 87be 652a 5e3d e63f 0abd 9e15 9cbc
00000080: c698 74bd cf5c bf3d 175f cb3d e740 88be
00000090: 5e76 bb3d 1bc1 95bd fca5 27be be57 6bbe
000000a0: df99 55be de52 01bd 9a74 00bc 02d4 8fbe
000000b0: be82 68bd 4db7 52bd 8547 1ebf b406 58be
000000c0: 0384 4b3e c458 a1be b9ed e1be 7581 8dbd
000000d0: ff42 24be 374d 3abe a07e 88bd e673 b1be
000000e0: 483a 28be ed82 08be 5383 dbbd f31e 823c
000000f0: e09d 5cbe ab5b 4f3e 667c 5abd ff95 e33d
00000100: 0517 f7bd 4360 df3d 280c cabe a61d 3bbd
00000110: 1a0e 0bbe 917b 0bbb 1270 b33d 07af 93be
00000120: 97ed 1abe 78e9 b6bd b2b3 3ebe 5e83 0fbd
00000130: f5a4 39be 2506 093d 8ddc 98bd 84c7 b8bd
00000140: e41b 6cbe fe32 9cbe ea5e 99bd 643a 8dbe
00000150: 8570 2d3e 1c31 95ba 78a1 a8be 9327 63be
00000160: aa65 42bd a144 66bd 4fcf 1cbe df45 15be
00000170: 22c9 72be 4204 1bbe 04f1 7abe adfc 9fbd
00000180: 46f4 14bd b6fa 14bf 639a ea3c da86 00bf
00000190: 728a a73c ab62 423c d93f 683d 64c1 0dbd
000001a0: f2dd 0f3b de52 3abe b26f 64be bd58 1abc
000001b0: 247c 53bd 5c2d ebbd d9e9 0abf 4f67 dfbd
000001c0: a2e8 e0bd be63 213c 7238 bdbc 580e 233d
000001d0: 677a 6dbc 360e 10bf 1c68 cbbe d075 3e3d
000001e0: e214 a9be 1fe7 04be 964a 0cbe 9480 25be
000001f0: 1544 e5bc bbcd e1bd c36b 1cbe 4a08 babe
00000200: 1c02 3abe 090c 753e 8ff4 39be 8e3d 64bd
00000210: 8ad0 6dbe 34e8 b9be 851d 223e a9db c5be
00000220: 4571 6fbd 9107 4abd 34c1 aabd 34ba 783d
00000230: 3692 e7be 9485 e5bd 0d08 53be 86f1 613d
00000240: 608d 56bc 9f83 71be fe09 583d 1ca3 a7bd
00000250: e67c 3cbe a9c8 49bd ca84 05bf 1d6b 8ebe
00000260: 3751 1b3e 12af 07bd 1cce 303d 6e15 de3c
00000270: 0b2d b6be 13db ecbe 0b78 89be 6efa 0d3e
00000280: afbf 173c ab28 7ebe 9f9e 10be b359 fbbd
00000290: f210 c23c 6e72 bdbe 1931 07be 78ac 8e3e
000002a0: fce9 0bbe 131f 06bd ba4f 84be 5117 2abd
000002b0: 9042 e0be 8ae2 bcbe 6f16 61be 1d50 3cbd
000002c0: 48af ba3d 2ed9 9bbe 8597 fe3d b139 c5bd
000002d0: 91df 7c3e 8af2 07be 968e b23e a65a b7bc
000002e0: 432e 98be 18b4 6ebe ae36 983d 7ed4 32be
000002f0: 6aa7 87bc 4a38 29be 15ff 5bbe 6074 11be
00000300: fd80 f9bd 34af aebe 4c1f 97be a6c4 18be
00000310: 0cda 8bbe f73b ddbe 1625 34be 8f06 763e
00000320: 329c 7c3c 9b27 3cbe 3067 f6bd bea9 27bd
00000330: 40f5 9fbc a728 87be 7542 b33c 708a 09bd
00000340: 03f1 a23c cdd3 cdbd 38eb b7bb f852 48be
00000350: 6319 6b3e 859e fd3d 9ee5 3c3c 7c21 37be
00000360: c1ba b73d 17ef 8a3d 67fb c6be b6e4 81be
00000370: b632 b2be e299 bebd 7255 11be 2a5c 753d
00000380: c37e 41be 412c e03d 3ad9 903c cdd8 89bd
00000390: 1d37 e63c 6e7b 28bf af28 583d a2e9 603e
000003a0: b901 a1be f593 f8bd bc05 93be 05db 4cbb
000003b0: c541 a2bd c0d5 adbe 3ebe 843d 4a6f 95bd
000003c0: bf74 e1bd 1260 3e3d 6546 f1be 758a a6be
000003d0: 74db a93d ecf2 2e3d fb74 8e3d 685f 7ebe
000003e0: 26fb 233c a144 86be adb9 483a 0fc0 96bd
000003f0: cfb9 8fbe 71f1 4cbc 5128 3ebd 3bf7 76be

fc2.bias f4 [128]
-0.035877377 -0.2930096 -0.18964764 -0.15747076 -0.2705913 -0.008726379 -0.10520757 -0.109828405
-0.10311855 -0.30901912 -0.028635072 -0.041896038 -0.20093463 -0.1848345 -0.062367532 -0.035178915
-0.087835826 -0.033462077 -0.37729815 -0.053735625 -0.12230247 -0.05497249 -0.30793765 -0.19949411
-0.08338473 -0.32110456 -0.1569352 -0.11340954 -0.0374837 -0.15200442 0.029809095 -0.28777134
-0.3861931 0.021073362 -0.11240766 -0.07809265 -0.20999515 -0.21109544 -0.29721817 -0.13757257
-0.15907875 -0.4264098 -0.19777824 -0.12380707 -0.20010792 -0.089999214 -0.12004708 -0.12068037
-0.4167784 -0.12047976 -0.09368608 -0.056733865 0.034202732 0.14146021 -0.124100715 -0.31502327
0.09221685 0.2654817 -0.17974503 0.009697661 -0.059202757 -0.410661 0.03838356 0.06238158
-0.14487159 0.28852502 -0.04594691 -0.109873906 -0.06439552 -0.040559713 -0.117073424 -0.30127653
0.119227454 -0.25529847 -0.13328359 -0.02065912 -0.16750915 -0.25284445 -0.31123933 -0.1572796
-0.28721303 -0.10329535 -0.062620014 0.007292138 -0.029346628 -0.09748602 -0.05743756 -0.111102164
-0.03005568 -0.16024159 -0.36546415 -0.06159646 -0.1960508 -0.015132125 -0.027889159 -0.11494055
-0.26405886 -0.20686115 -0.01676772 -0.14340058 -0.21560942 0.20351456 -0.2155155 -0.2736983
-0.04354719 0.0147314835 0.10165979 -0.053201724 -0.10533768 0.16393967 -0.4068873 -0.096889384
-0.107081994 0.041618977 -0.07542007 -0.05881118 0.10426514 -0.0011971953 -0.20732892 -0.07804474
-0.118120745 -0.005995598 -0.1032553 -0.17502323 -0.037508413 -0.16644229 -0.24577104 -0.033118945
00000000: 28f4 12bd 5b05 96be fe32 42be 0440 21be
00000010: f18a 8abe 16f9 0ebc 1177 d7bd b7ed e0bd
00000020: d12f d3bd c137 9ebe 1994 eabc 2e9b 2bbd
00000030: cfc1 4dbe 4145 3dbe 1975 7fbd c417 10bd
00000040: 45e3 b3bd 880f 09bd 392d c1be e319 5cbd
00000050: b879 fabd d52a 61bd 01aa 9dbe 2f48 4cbe
00000060: 9dc5 aabd d167 a4be 9fb3 20be 4343 e8bd
00000070: 8288 19bd 0ca7 1bbe 3432 f43c c456 93be
00000080: 1abb c5be 0ba2 ac3c fd35 e6bd 0aef 9fbd
00000090: f808 57be 6729 58be fb2c 98be d3df 0cbe
000000a0: 8ae5 22be 6352 dabe 6186 4abe 908e fdbd
000000b0: 17e9 4cbe 8251 b8bd 3edb f5bd 4527 f7bd
000000c0: fa63 d5be 18be f6bd 7dde bfbd c561 68bd
000000d0: 2a18 0c3d f2da 103e 8428 febd bb4a a1be
000000e0: 30dc bc3d 38ed 873e 150f 38be f0e2 1e3c
000000f0: 977e 72bd 2942 d2be 1438 1d3d d483 7f3d
00000100: 3859 14be 8db9 933e d432 3cbd 9205 e1bd
00000110: cce1 83bd f121 26bd 31c4 efbd eb40 9abe
00000120: 862d f43d 7bb6 82be 7e7b 08be 513d a9bc
00000130: 8587 2bbe d474 81be c35a 9fbe e70d 21be
00000140: 960d 93be 838c d3bd ec3e 80bd e3f2 ee3b
00000150: 5768 f0bc c0a6 c7bd a643 6bbd 8889 e3bd
00000160: 5437 f6bc 5f16 24be 1e1e bbbe 924c 7cbd
00000170: 8ac1 48be bbec 77bc ce77 e4bc f365 ebbd
00000180: b932 87be 69d3 53be 755c 89bc 9ad7 12be
00000190: b7c8 5cbe 1f66 503e 18b0 5cbe 2f22 8cbe
000001a0: 8a5e 32bd 525c 713c 0233 d03d 0dea 59bd
000001b0: 48bb d7bd cddf 273e 8853 d0be f16d c6bd
000001c0: ce4d dbbd a978 2a3d d675 9abd fee3 70bd
000001d0: f688 d53d 35eb 9cba 084e 54be ecd5 9fbd
000001e0: 4ae9 f1bd b976 c4bb 8477 d3bd 4a39 33be
000001f0: 6ca2 19bd d96f 2abe 67ab 7bbe bba7 07bd

fc3.weight f4 [2, 128]
0.33908454 -0.08986288 -0.07843342 0.03756778 0.027600586 -0.0071129603 -0.09282572 -0.45333883
0.05673141 0.01754165 -0.057276323 -0.043101974 0.45471525 -0.5699653 0.0065683643 0.009333927
-0.11280163 0.0068865907 -0.37529328 0.010767091 -0.012712661 -0.6074375 -0.2649179 0.07563306
-0.022773353 0.021706806 -0.019065363 0.02776611 -0.015003078 -0.028758146 0.06988299 -0.024644583
-0.19852747 0.00281927 -0.00057406956 0.011321311 -0.023514923 -0.1996682 -0.00770466 0.13465196
0.08851016 -0.34518814 -0.10279156 -0.16221887 0.0054999897 -0.0033147098 -0.022827692 0.08471952
-0.105738595 -0.022993458 0.008323366 0.003451276 -0.015337505 0.0781043 -0.7798807 -0.019877972
0.12847507 0.007995106 -0.23093246 0.0019571588 -0.010158854 0.013349097 0.21706253 0.3389886
-0.034125302 0.06883441 0.1986945 0.07300251 0.001260641 -0.0231548 -0.0102348905 -0.0074831834
0.50471973 -0.114204444 -0.08650015 -0.0685175 -0.21651079 0.78463674 -0.30429134 -0.027363367
-0.20334563 0.03540083 0.10841205 0.10404106 -0.01820531 0.0017250474 0.018452037 0.018586112
0.0021505633 -0.0058889207 -0.59649897 -0.11380926 -0.33611968 0.090407364 0.107326895 -0.071911246
-0.47350952 0.09803738 -0.0027412318 0.054845493 -0.01277865 0.022841198 -0.010654858 0.14549455
0.03588181 -0.05972567 -0.016346846 -0.009035584 0.18451546 -0.03531847 -0.18236263 -0.03520216
0.004032543 -0.041171905 0.1317455 0.013843946 0.2763108 0.09784276 0.018584792 0.20561746
-0.7766926 0.0067130257 0.0159685 0.18541245 -0.0043887757 0.0974377 -0.7496715 -0.012657408
0.054637916 -0.68260145 -0.46130976 0.060942255 0.42358065 -0.25955603 -0.3101214 -0.04457149
0.49530473 0.51999223 -0.123579286 -0.025362778 -0.5597738 0.33811834 -0.012823074 -0.026790854
-0.56562805 0.06766737 0.14147846 -0.0126625225 0.005132287 0.049760774 0.13129081 0.083261184
-0.2931086 0.3670283 -0.011860593 -0.027457742 0.012552191 -0.005371314 -0.7994669 0.37243575
-0.4678346 0.114827685 0.08038204 -0.066135846 0.12938039 -0.09320623 0.70543426 -0.31157953
0.23945875 -0.037982013 -0.014630027 0.4111899 0.037262708 -0.025246251 0.019321162 0.22316909
0.4930918 -0.025357699 -0.014577923 -0.009440685 0.48505294 0.14623493 0.005097565 0.26427516
-0.13108188 -0.52052563 -0.079135925 0.019815993 0.0029682438 0.17082603 0.14597401 -0.0041483524
-0.16414852 -0.1975162 -0.09307156 -0.1322593 -0.06941679 0.048335694 0.013409413 0.5753574
0.008191555 0.21161944 0.019576617 -0.19667321 0.018550945 0.2311952 -0.56022304 -0.036904212
-0.112100355 -0.021890543 0.56019014 0.089358 0.06402369 -0.013980421 -0.0009969593 0.017756246
0.025694305 -0.02104563 0.011527687 0.89271164 -0.3795559 -0.07348092 -0.0736697 0.014600965
0.28699043 -0.09416364 -0.010851716 0.1904039 0.19222908 -0.47112137 -0.521193 0.8567454
-0.3385541 -0.19335411 -0.67165476 -0.0076127336 -0.01945147 0.26352566 0.29150903 0.0031678202
-0.013067421 -0.01784541 0.31332228 -0.48227975 0.062538326 -0.07212131 0.06476124 -0.20005865
-0.025422739 0.020095037 -0.048769895 -0.14582649 0.0073046274 0.022432921 -0.0087189 -0.10994538
00000000: 7d9c ad3e 080a b8bd b3a1 a0bd ace0 193d
00000010: a01a e23c d613 e9bb 691b bebd 071c e8be
00000020: 325f 683d 82b3 8f3c 949a 6abd b28b 30bd
00000030: 70d0 e83e 3fe9 11bf 6f3b d73b 54ed 183c
00000040: 8a04 e7bd e9a8 e13b 7126 c0be 7468 303c
00000050: c448 50bc 0681 1bbf 52a3 87be 81e5 9a3d
00000060: 2f8f babc 79d2 b13c f72e 9cbc c175 e33c
00000070: 78cf 75bc 3496 ebbc d01e 8f3d 70e3 c9bc
00000080: c94a 4bbe 80c3 383b 287d 16ba 057d 393c
00000090: 5ea2 c0bc d275 4cbe 5f77 fcbb 34e2 093e
000000a0: d144 b53d 80bc b0be 6284 d2bd b41c 26be
000000b0: 4239 b43b 9a3b 59bb 2401 bbbc 6d81 ad3d
000000c0: 7a8d d8bd c75c bcbc ba5e 083c ce2e 623b
000000d0: 294a 7bbc 26f5 9f3d 43a6 47bf 21d7 a2bc
000000e0: f88e 033e e8fd 023c 8f79 6cbe ad43 003b
000000f0: 5271 26bc 2cb6 5a3c a445 5e3e ea8f ad3e
00000100: f9c6 0bbd 0ef9 8c3d 9276 4b3e 5782 953d
00000110: 183c a53a 23af bdbc 3eb0 27bc 7e35 f5bb
00000120: 5035 013f 05e4 e9bd fe26 b1bd e752 8cbd
00000130: 01b5 5dbe f4dd 483f 13cc 9bbe 2429 e0bc
00000140: d639 50be 7600 113d 2307 de3d 7b13 d53d
00000150: 4d23 95bc fc1a e23a ba28 973c e741 983c
00000160: 77f0 0c3b d9f7 c0bb 28b4 18bf d414 e9bd
00000170: e117 acbe 7f27 b93d 34ce db3d 3446 93bd
00000180: d76f f2be d2c7 c83d 3da6 33bb aba5 603d
00000190: 8b5d 51bc 771d bb3c b791 2ebc 86fc 143e
000001a0: cef8 123d e7a2 74bd d2e9 85bc fc09 14bc
000001b0: 9ff1 3c3e 1aaa 10bd 45bd 3abe 2430 10bd
000001c0: 6c23 843b dfa3 28bd 4be8 063e b8d1 623c
000001d0: 9c78 8d3e c961 c83d 223f 983c 628d 523e
000001e0: 54d5 46bf f1f8 db3b 5fd0 823c c3dc 3d3e
000001f0: b8cf 8fbb 6b8d c73d 79ea 3fbf 0461 4fbc
00000200: 02cc 5f3d f8be 2ebf cb30 ecbe 969e 793d
00000210: 90df d83e 87e4 84be 3bc8 9ebe 9890 36bd
00000220: 9598 fd3e 361e 053f 2317 fdbd 9ac5 cfbc
00000230: 564d 0fbf d91d ad3e df17 52bc 7e78 dbbc
00000240: 00cd 10bf 3195 8a3d bbdf 103e 7876 4fbc
00000250: be2c a83b f4d1 4b3d 1971 063e d784 aa3d
00000260: 5512 96be 22eb bb3e ef52 42bc 0fef e0bc
00000270: b4a7 4d3c d901 b0bb dda9 4cbf e6af be3e
00000280: 0488 efbe c72a eb3d 579f a43d 3b72 87bd
00000290: 4b7c 043e e8e2 bebd 5797 343f 5a87 9fbe
000002a0: ad34 753e 0793 1bbd c8b2 6fbc 7c87 d23e
000002b0: c8a0 183d 3ad1 cebc 6a47 9e3c 7086 643e
000002c0: 8776 fc3e f3ba cfbc 3ed8 6ebc 1aad 1abc
000002d0: dc58 f83e 9cbe 153e 7909 a73b 134f 873e
000002e0: 543a 06be 2b41 05bf 0412 a2bd 2655 a23c
000002f0: de86 423b 05ed 2e3e 367a 153e e7ee 87bb
00000300: 8d16 28be b041 4abe 4d9c bebd fb6e 07be
00000310: 642a 8ebd a6fb 453d 28b3 5b3c 9f4a 133f
00000320: df35 063c c4b2 583e 245f a03c b464 49be
00000330: 27f8 973c 6fbe 6c3e c76a 0fbf df28 17bd
00000340: df94 e5bd cc53 b3bc 9f68 0f3f 5401 b73d
00000350: da1e 833d 230e 65bc 67ac 82ba 8c75 913c
00000360: dd7c d23c e367 acbc a0de 3c3c c088 643f
00000370: 2755 c2be 2a7d 96bd 24e0 96bd e338 6f3c
00000380: 69f0 923e ded8 c0bd 65cb 31bc 3df9 423e
00000390: b3d7 443e d236 f1be e86c 05bf ab53 5b3f
000003a0: f756 adbe 9ffe 45be 91f1 2bbf 3d74 f9bb
000003b0: b058 9fbc d6ec 863e ac40 953e 349b 4f3b
000003c0: bc18 56bc 8a30 92bc c76b a03e 5fed f6be
000003d0: 1814 803d 56b4 93bd 8aa1 843d 2ddc 4cbe
000003e0: 5943 d0bc 599e a43c f1c2 47bd 8a53 15be
000003f0: a85b ef3b 3fc5 b73c b8d9 0ebc 0b2b e1bd

fc3.bias f4 [2]
0.06764131 0.33570516
00000000: 8787 8a3d 8ce1 ab3e
